server+app+modeltraining/simple_server/outputs/v1/checkpoints/best.pt (torch, 204005 bytes, 18 tensors)

tcn.0.conv1.weight f4 [32, 5, 3]
0	0x3f1ff445	0.624821
1	0xbe609809	-0.21932997
2	0x3ec2f06b	0.3807405
3	0xbe30f64b	-0.17281453
4	0x3d36d53a	0.044636942
5	0x3ebc9d6c	0.36838853
6	0x3f07a8f0	0.52992153
7	0x3e52c30d	0.20582218
8	0xbf24b14d	-0.6433304
9	0x3d435f0e	0.047698073
10	0xbed6a1e4	-0.41920388
11	0xbe97723c	-0.2957934
12	0x3ea84188	0.32862496
13	0x3e93ddde	0.2888021
14	0x3a07a10f	0.0005173841
15	0xbf0742fc	-0.52836585
16	0x3f0a3403	0.53985614
17	0xbe07530a	-0.1321527
18	0xbe92e39a	-0.2868927
19	0xbcbf9fe2	-0.023391668
20	0x3f062862	0.5240537
21	0x3f3977f9	0.7244869
22	0xbe36a174	-0.17835027
23	0xbf162de3	-0.5866377
24	0x3f097837	0.5369906
25	0xbf3cf857	-0.73816437
26	0xbcb318c3	-0.021862393
27	0x3f23ad55	0.6393636
28	0xbea2239a	-0.31667787
29	0x3d8bd41a	0.068275645
30	0x3de4223e	0.11139344
31	0xbdb17441	-0.08664752
32	0xbdb7a20c	-0.08966455
33	0x3cf1e9a7	0.02953036
34	0x3e8608f5	0.2617871
35	0xbcf7e65b	-0.03026121
36	0xbeb785fa	-0.35844404
37	0x3ee271b3	0.4422737
38	0x3ee8d3d4	0.45474112
39	0xbd9510e9	-0.07278616
40	0x3e56e502	0.20985797
41	0xbf2ffaf1	-0.6874228
42	0x3eb295d2	0.3487993
43	0x3c051df1	0.008124814
44	0xbd8be26c	-0.06830296
45	0xbe359265	-0.17731626
46	0x3e7ab8b2	0.24484518
47	0x3eb36f57	0.35045883
48	0xbf146e63	-0.57980937
49	0x3efeaf53	0.49743137
50	0xbdd58de6	-0.104274556
51	0x3d802b13	0.06258216
52	0x3d71d0b9	0.059036944
53	0xbed25757	-0.4108226
54	0xbee8aca6	-0.4544422
55	0x3dcde43c	0.10053298
56	0x3ec01de5	0.37522808
57	0x3ec74a69	0.38923958
58	0xbe0a5bd6	-0.13511595
59	0xbe807cc9	-0.25095204
60	0x3e6e0119	0.23242606
61	0xbee1912e	-0.44056076
62	0xbf1698c1	-0.58826834
63	0x3ec1a297	0.3781936
64	0xbe91e6e6	-0.28496474
65	0x3e899262	0.26869494
66	0x3ce057e0	0.027385652
67	0xbd23b8a1	-0.039970998
68	0x3e671762	0.22567514
69	0xbecf9ad7	-0.4054782
70	0xbe94d544	-0.2906896
71	0xbe9606b0	-0.29301977
72	0xbd548e4c	-0.051893517
73	0xbd443e2b	-0.04791085
74	0xbe87a5e4	-0.26493752
75	0x3de35b33	0.11101379
76	0xbd60533b	-0.054766875
77	0x3e892b7a	0.26790982
78	0xbeda5bff	-0.42648312
79	0x3e3f3d7d	0.186758
80	0x3e1a1319	0.15046348
81	0x3e98c866	0.29840392
82	0xbe88b909	-0.2670367
83	0x3f1af09d	0.60523397
84	0xbf0851e9	-0.53249985
85	0xbd4fd7c1	-0.05074287
86	0x3f01c99f	0.50698274
87	0x3e9e654f	0.30936667
88	0xbf248751	-0.64268976
89	0x3eaf89ac	0.34284723
90	0xbe90d6e2	-0.28288943
91	0x3df3ece4	0.11910418
92	0x3e6a658e	0.22890303
93	0x3f1f8b4e	0.6232194
94	0xbf4acdca	-0.7922026
95	0xbe8984ad	-0.26859036
96	0x3e16cc06	0.14726266
97	0xbec5ffcd	-0.38671723
98	0xbed06cbb	-0.40707955
99	0x3e348a37	0.1763085
100	0xbde2706d	-0.110566
101	0x3e8a97e5	0.2706901
102	0xbc230481	-0.009949804
103	0xbedaf926	-0.4276821
104	0xbcc5242d	-0.024065102
105	0x3f27bea9	0.655253
106	0xbf18b69f	-0.5965366
107	0xbec7fabb	-0.3905848
108	0xbef2e260	-0.47438335
109	0xbe9b3355	-0.303126
110	0xbe74ddcd	-0.23912735
111	0x3f5ede1c	0.8705766
112	0x3c6c284e	0.014413906
113	0xbea873e8	-0.3290093
114	0x3e6683e5	0.22511251
115	0xbde3cf75	-0.11123554
116	0xbdb65392	-0.089026585
117	0x3f430e52	0.76193726
118	0xbf140b5b	-0.5782983
119	0xbda638d6	-0.08116309
120	0x3eabae79	0.3353155
121	0xbe35300a	-0.17694107
122	0x3ea4af71	0.321651
123	0x3ea249b6	0.31696862
124	0x3e0cbbbf	0.13743494
125	0xbf5719ef	-0.84023947
126	0xbd068e04	-0.03285028
127	0xbec475d9	-0.3837116
128	0xbecf2a49	-0.4046195
129	0xbd52c4d2	-0.051457234
130	0x3d6524cd	0.0559433
131	0x3e5ffb79	0.21873273
132	0xbef9728d	-0.48720208
133	0xbd861d3e	-0.06548546
134	0x3e85730e	0.26064342
135	0xbd920864	-0.07130507
136	0xbe36653c	-0.17812055
137	0x3edc9e31	0.4308944
138	0x3f803a52	1.0017798
139	0x3ec27cb7	0.37985775
140	0x3d26ebe8	0.04075232
141	0xbe9b885f	-0.3037748
142	0x3aebdfea	0.0017995809
143	0x3d8c4d39	0.068506666
144	0x3f0101bc	0.5039327
145	0xbeafc715	-0.34331575
146	0x3d026461	0.03183401
147	0x3d6cc4ef	0.057804998
148	0xbdd52521	-0.104074724
149	0x3e029b2e	0.12754509
150	0x3e7c11b5	0.2461613
151	0xbe623847	-0.2209178
152	0x3f32ba7c	0.698158
153	0xbdfc95dc	-0.12333271
154	0xbe5e0352	-0.21680954
155	0xbe158a5f	-0.14603566
156	0xbe747ee5	-0.23876531
157	0xbf5cfd4c	-0.86324
158	0x3d2aee20	0.041731
159	0x3dcdb2c8	0.100438654
160	0xbd0be37b	-0.03415249
161	0xbf09a5bd	-0.5376852
162	0xbebf655f	-0.37382028
163	0x3e975c6a	0.29562694
164	0xbd8331b2	-0.06405963
165	0x3e60c16b	0.21948783
166	0x3cb86062	0.022506896
167	0xbeaf713f	-0.34266087
168	0xbe08371d	-0.13302274
169	0xbe1b02e5	-0.15137823
170	0xbea13d72	-0.31492192
171	0xbe41c213	-0.1892169
172	0xbf5a7e3e	-0.8534888
173	0xbc7890a5	-0.015171205
174	0x3ea20bf2	0.3164974
175	0xbe9184d8	-0.28421664
176	0x3f65f18e	0.8982171
177	0x3e2a23ca	0.16615215
178	0xbf2d2250	-0.6763048
179	0x3e2d06f7	0.16897188
180	0xbe06cefd	-0.13164897
181	0x3eb8ef6c	0.36120164
182	0x3f6a6646	0.91562307
183	0x3efacc5f	0.48984048
184	0x3da9d6ae	0.082929
185	0xbbdb4f5a	-0.006692809
186	0x3f68a007	0.9086918
187	0xbe99fac5	-0.30074134
188	0x3ec112db	0.37709698
189	0x3bb1ddb5	0.005428041
190	0x3d97141c	0.073768824
191	0xbd4a7287	-0.049425628
192	0x3f6f9927	0.93593067
193	0xbefdb221	-0.49549964
194	0x3f4d175b	0.8011376
195	0xbe574f52	-0.21026352
196	0xbd4945a7	-0.04913869
197	0x3df8beb7	0.12145751
198	0xbf024575	-0.50887233
199	0x3db7f25b	0.089817725
200	0xbec22dff	-0.37925717
201	0x3ec0c48f	0.37649962
202	0xbe365c6d	-0.17808695
203	0xbf1c4ed7	-0.610578
204	0xbd1863e1	-0.037204627
205	0x3efadd12	0.48996788
206	0xbf0cb914	-0.54969907
207	0xbf927567	-1.1442078
208	0xbf0b4a06	-0.54409826
209	0x3ea4ae26	0.32164115
210	0xbe3a5757	-0.1819738
211	0x3ea881b6	0.32911462
212	0x3dea0b91	0.11427987
213	0x3d78f469	0.060779963
214	0x3df3d5d7	0.11906021
215	0x3e508bab	0.20365779
216	0xbf060f19	-0.5236679
217	0x3e325c92	0.17418125
218	0x3f05a64a	0.5220686
219	0x3e9affa8	0.30273175
220	0x3d899505	0.06717876
221	0x3d1ea859	0.038734768
222	0x3eebdff9	0.46069315
223	0xbf29910e	-0.6623696
224	0x3e81cb90	0.25350618
225	0xbf08f16b	-0.53493375
226	0x3f01b3ae	0.50664794
227	0x3f02ff3f	0.51170725
228	0xbec5cbd6	-0.38632077
229	0x3e979970	0.2960925
230	0xbf5521a6	-0.8325447
231	0x3e0da8d5	0.13833936
232	0xbe60ea3f	-0.21964358
233	0x3d9fa62e	0.07795368
234	0xbd5852ea	-0.052813448
235	0xbe30ea2f	-0.17276834
236	0xbe4e0abf	-0.20121287
237	0xbe48bff2	-0.19604471
238	0xbef22b1d	-0.47298518
239	0xbf369b46	-0.7133068
240	0xbe42e11b	-0.19031183
241	0xbe2c099e	-0.16800544
242	0xbedeb973	-0.43500862
243	0xbe6e395e	-0.23264071
244	0xbdb62fc0	-0.08895826
245	0xbf5ec927	-0.87025684
246	0x3efa1824	0.48846543
247	0x3eddc10f	0.43311355
248	0xbd966520	-0.07343507
249	0xbd731ae7	-0.059351828
250	0xbec10a79	-0.37703303
251	0x3da57abb	0.080800496
252	0xbde608ae	-0.11232124
253	0x3dd24bdb	0.102683745
254	0xbd3f2029	-0.04666153
255	0x3f54766d	0.82993203

tcn.0.conv1.bias f4 [32]
0	0xb8de618c	-0.000106039544
1	0x3ab4b2ae	0.0013786161
2	0x39a15df4	0.00030778314
3	0xb9dd51b2	-0.00042213273
4	0xba0361a5	-0.00050118036
5	0x3a497aa9	0.00076858193
6	0x39ac9b31	0.00032922023
7	0xbb17e315	-0.0023176123
8	0xb9d0d812	-0.00039833836
9	0xbb45f01f	-0.0030202938
10	0xbb15ba02	-0.0022846465
11	0xba516d65	-0.00079890183
12	0xbb6d734b	-0.003623205
13	0xbb34df6e	-0.0027598995
14	0xbb09c51b	-0.0021022025
15	0xbb2c4242	-0.002628461
16	0xba856d31	-0.0010179636
17	0xbb708caa	-0.0036704936
18	0xba00caf6	-0.0004913056
19	0xbacac8aa	-0.001547118
20	0xbb1193e7	-0.00222134
21	0xba842f1e	-0.0010084843
22	0xbaa820df	-0.0012827179
23	0x3b7b2c02	0.0038325791
24	0x3b09be56	0.002101799
25	0x3ab982e5	0.001415339
26	0x3a193e6c	0.00058457884
27	0xbb2de580	-0.0026534498
28	0x3925d920	0.00015816512
29	0xbb0d5af2	-0.00215691
30	0x3a605b30	0.000855851
31	0xba0de230	-0.00054124277

tcn.0.conv2.weight f4 [32, 32, 3]
0	0x3cf763fd	0.030199045
1	0xbe042ffd	-0.12908931
2	0xbe1b42b6	-0.15162167
3	0xbd23b4de	-0.03996741
4	0xbc966ae6	-0.01836152
5	0xbe014910	-0.12625527
6	0xbd4da27e	-0.050203793
7	0xbd17060a	-0.036870994
8	0x3e4ac281	0.1980076
9	0xbe72af95	-0.23699792
10	0x3e50a09c	0.20373768
11	0xbd5900c9	-0.052979264
12	0x3cc56026	0.024093699
13	0xbd32fb4e	-0.043696694
14	0xbc01935b	-0.007908667
15	0xbd900cd7	-0.07033699
16	0x3e38647b	0.1800708
17	0xbd807f19	-0.06274242
18	0x3d959617	0.07304018
19	0xbe5fe2ff	-0.21863936
20	0x3e3e26b4	0.18569452
21	0x3d42dd7f	0.047574516
22	0x3dd6e444	0.10492757
23	0xbdec0706	-0.11524777
24	0xbd8cfe3b	-0.06884428
25	0xbddf7b19	-0.10912151
26	0xbe991d3e	-0.29905123
27	0x3c408842	0.011751236
28	0xbdf44834	-0.11927834
29	0x3d9f66ba	0.077832654
30	0xbc4745d0	-0.012162641
31	0xbe27fbdd	-0.16404672
32	0xbda28c1b	-0.07936879
33	0x3e8996b5	0.26872793
34	0xbe2efcb0	-0.1708858
35	0x3e126dc8	0.1429969
36	0x3e870430	0.26370382
37	0xbcc5f714	-0.024165668
38	0x3d239ed5	0.039946396
39	0xbd495e13	-0.04916198
40	0x3d7a7df5	0.06115528
41	0x3e9d8cd5	0.3077151
42	0xbdb8181e	-0.08988975
43	0x3e43c5aa	0.19118372
44	0xbe522e0f	-0.20525382
45	0x3db946b3	0.09046688
46	0x3d8e629a	0.069524005
47	0xbe8c15f9	-0.27360514
48	0x3ea280c6	0.3173887
49	0xbe430c89	-0.1904775
50	0xbcfc32a0	-0.030785859
51	0xbe0421c4	-0.12903506
52	0xbd99344c	-0.07480678
53	0x3dd88513	0.10572257
54	0x3d18c40e	0.037296347
55	0x3e0a0680	0.13479042
56	0x3d21b26f	0.03947681
57	0xbd35b2cb	-0.044359963
58	0x3e9e2931	0.30890802
59	0x3d93016a	0.07178004
60	0xbc881d1e	-0.016615447
61	0x3e45bdf7	0.19310747
62	0xbe02456d	-0.12721796
63	0xbccb0d2a	-0.02478655
64	0xbdcbdab2	-0.09953822
65	0x3b99450b	0.00467742
66	0x3db1309a	0.08651848
67	0xbe1cd6ca	-0.1531631
68	0xbb1f61e9	-0.0024319834
69	0x3e39130b	0.1807367
70	0x3d5b4b08	0.053538352
71	0xbdb486e8	-0.08814794
72	0xbdc92b57	-0.098227195
73	0xbd85ea6b	-0.06538852
74	0xbe36824c	-0.17823142
75	0x3d69c3cd	0.057071496
76	0xbd8869b1	-0.06660784
77	0x3d93e537	0.07221454
78	0xbe7c7433	-0.24653701
79	0xbe33b26f	-0.17548536
80	0xbd276812	-0.040870734
81	0xbe46518a	-0.19367042
82	0xbd29fdf2	-0.041501947
83	0xbe01aa60	-0.12662649
84	0xbd1c0a1c	-0.03809558
85	0x3e184929	0.14871658
86	0xbdf037dc	-0.11729404
87	0x3e05b265	0.13056333
88	0xbc2749aa	-0.010210434
89	0xbcb7b172	-0.02242348
90	0xbd644529	-0.05573002
91	0xbeab7493	-0.33487377
92	0x3c5dab03	0.013529542
93	0xbb87bb8a	-0.0041422294
94	0xbe811c82	-0.25217062
95	0xbdd9c48d	-0.10633192
96	0xbce8c158	-0.028412506
97	0xbdff8990	-0.1247741
98	0xbda324a3	-0.07965972
99	0x3c24879b	0.0100420965
100	0x3c8e6d96	0.017386239
101	0x3e43caf0	0.19120383
102	0x3e37c29e	0.17945334
103	0x3c9c7eba	0.019103397
104	0xbe45380f	-0.19259666
105	0xbdf1d337	-0.11807864
106	0xbe44faf8	-0.19236362
107	0x3e225d60	0.15855932
108	0xbe3bf35c	-0.18354553
109	0x3e9fbb43	0.31197557
110	0x3e2447a8	0.1604296
111	0x3cac4167	0.02102728
112	0x3e1e2c88	0.15446675
113	0x3e09d0f6	0.13458619
114	0x3e310649	0.17287554
115	0xbe26a4bb	-0.16273777
116	0xbd73e494	-0.05954416
117	0xbce02ddb	-0.027365616
118	0xbe0630e5	-0.1310459
119	0x3ca0cb56	0.019628208
120	0xbcf45e03	-0.029829985
121	0x3e031f5e	0.12804934
122	0xbd3e6497	-0.04648265
123	0x3e5728b7	0.21011625
124	0xbe388394	-0.18018943
125	0xbd68b57f	-0.056813713
126	0x3d5eed11	0.054425303
127	0x3ea4b54d	0.32169572
128	0xbd65f759	-0.056144092
129	0x3e8c3bca	0.27389365
130	0x3e2745e3	0.16335253
131	0x3da77ac8	0.081777155
132	0xbdd427d4	-0.10359159
133	0xbe3bdf32	-0.18346861
134	0xbd975695	-0.07389561
135	0xbe92a622	-0.28642374
136	0xbd890538	-0.066904485
137	0xbd96ffa1	-0.07372976
138	0x3e221448	0.15828049
139	0xbca06b5f	-0.019582449
140	0xbdbcffa8	-0.0922845
141	0x3ea2470f	0.31694838
142	0xbbb4c35a	-0.005516452
143	0x3cf1561d	0.029460007
144	0x3e281bc4	0.16416842
145	0xbd29d63c	-0.041464075
146	0xbdf66fbc	-0.120330304
147	0x3b3c58c6	0.0028739437
148	0xbebfabb9	-0.374357
149	0x3d5b63dc	0.05356203
150	0x3d96c192	0.07361139
151	0x3e8da1e7	0.27662584
152	0xbe09f27d	-0.13471408
153	0x3c61518e	0.013752354
154	0x3d9968d9	0.07490701
155	0x3d84b902	0.064806
156	0xbd6dcb14	-0.058055
157	0xbd1ea690	-0.038733065
158	0xbc8f6ea6	-0.017508816
159	0xbe642121	-0.22278263
160	0x3dd0f423	0.102028154
161	0x3d6b3e91	0.057432715
162	0xbd72d00d	-0.059280444
163	0x3d9cb7fb	0.07652279
164	0x3e6bde03	0.2303391
165	0x3dbb24b4	0.0913786
166	0xbe34882d	-0.17630072
167	0x3ed09d72	0.4074512
168	0xbd3148f4	-0.043282464
169	0x3e15bf38	0.14623725
170	0x3da9ae85	0.0828524
171	0x3dd22134	0.10260239
172	0x3e818118	0.25293803
173	0xbd692013	-0.056915354
174	0x3c007dd2	0.007842498
175	0x3df263ea	0.11835463
176	0x3e740aab	0.23832195
177	0xbda7c300	-0.0819149
178	0xbca43646	-0.02004541
179	0xbd251447	-0.04030254
180	0x3e0f80e4	0.14014012
181	0xbe1b1591	-0.15144946
182	0x3e225ebf	0.15856455
183	0x3d89216d	0.066958286
184	0xbe0d57c8	-0.13803017
185	0x3d07a814	0.033119276
186	0xbd6d8581	-0.057988647
187	0xbdbfb488	-0.093606055
188	0x3d0ff873	0.03514905
189	0xbd4d7423	-0.050159585
190	0xbcfc66d1	-0.030810745
191	0xb9bc8398	-0.000359562
192	0xbe32066b	-0.17385261
193	0xbd16ac59	-0.036785457
194	0x3d1d694b	0.038430493
195	0xbd0c722e	-0.034288578
196	0x3a06bb56	0.00051396096
197	0xbd162596	-0.03665694
198	0xbd0eb708	-0.03484252
199	0x3e7311b3	0.2373722
200	0xbcdccfb9	-0.026954519
201	0x3e8bcb40	0.27303505
202	0x3dcc80fe	0.09985541
203	0xbcc4dc66	-0.024030875
204	0x3d904497	0.070443325
205	0x3de4b2f4	0.11166945
206	0x3c607d32	0.013701724
207	0x3dc9ae9d	0.09847758
208	0xb98ff054	-0.00027454144
209	0x3e972e47	0.29527494
210	0xbc12c8f3	-0.008959043
211	0x3e1ec098	0.15503156
212	0xbd838048	-0.06420952
213	0xbe3ebd8f	-0.18626998
214	0x3bee6f87	0.0072764787
215	0xbbd921c5	-0.00662634
216	0x3e13e233	0.14441757
217	0x3ea2081f	0.3164682
218	0xbe97edfd	-0.29673758
219	0x3da9a9e8	0.0828436
220	0x3d10b15c	0.035325393
221	0xbd912aac	-0.07088217
222	0x3dc94e3d	0.09829376
223	0x3d3e8dd1	0.046521965
224	0xbe0ccc64	-0.13749844
225	0xbd7c411b	-0.061585527
226	0xbde1d73d	-0.110273816
227	0x3d7f0126	0.062256955
228	0xbb8798e5	-0.0041380995
229	0xbdc9982b	-0.09843477
230	0x3de757ae	0.112960204
231	0xbe2f2fc0	-0.17108059
232	0x3e3491b5	0.17633708
233	0xbd06893a	-0.032845713
234	0xbe5f58c1	-0.218112
235	0xbdf352d3	-0.11881032
236	0x3d873a97	0.06602972
237	0xbe08be8c	-0.13353938
238	0xbdb5cdf6	-0.088771746
239	0x3b8a1902	0.004214407
240	0x3dcd944a	0.100380495
241	0xbe7cdb0c	-0.24692935
242	0xbd103ac4	-0.035212293
243	0xbc9a4b6b	-0.01883479
244	0x3e9a8f27	0.30187342
245	0xbd84625d	-0.06464074
246	0x3cd1667b	0.025561562
247	0xbc2a517c	-0.010395404
248	0x3df173e1	0.1178968
249	0xbce5942a	-0.028024752
250	0x3ce0c9b9	0.027439939
251	0xbd9fdd36	-0.078058645
252	0x3e917dd2	0.28416306
253	0xbe336272	-0.17518023
254	0x3e263cdf	0.16234158
255	0x3caba3e3	0.02095217

tcn.0.conv2.bias f4 [32]
0	0xb951bfde	-0.0002000327
1	0x3ba17be4	0.004928099
2	0xbb836f39	-0.0040110615
3	0xba078025	-0.00051689363
4	0x3a269094	0.0006353941
5	0x3b1622d0	0.0022908933
6	0xba833362	-0.001000982
7	0xbba6f214	-0.005094776
8	0xbab92f96	-0.0014128562
9	0xbb959296	-0.0045645935
10	0xbb1bdbb4	-0.0023782076
11	0x3b078431	0.0020678157
12	0x3983eaab	0.00025161108
13	0xbb6f6d71	-0.0036533738
14	0x3a06305d	0.0005118901
15	0xbab5449b	-0.001382965
16	0xb7e02470	-2.6719848e-05
17	0xbb9e5f73	-0.004833156
18	0xbb8a5378	-0.004221376
19	0xbb1f7cf7	-0.002433596
20	0x3aa2fc55	0.001243482
21	0x3a0f8a07	0.0005475585
22	0xbb557c02	-0.0032575135
23	0x38fc7b06	0.00012039211
24	0xbb8877e4	-0.0041646827
25	0xb9d531c0	-0.00040663593
26	0xba995d0d	-0.0011700705
27	0x3abc5ba3	0.0014370572
28	0x39e24c58	0.0004316296
29	0xbab074ef	-0.0013462583
30	0x3a30b973	0.0006741501
31	0xba2e60ad	-0.0006651979

tcn.0.downsample.weight f4 [32, 5, 1]
0	0xbf4a324e	-0.7898301
1	0xbea3beef	-0.31981608
2	0xbf16e11f	-0.5893726
3	0xbf412536	-0.75447404
4	0x3e2f7824	0.17135674
5	0xbeaa614f	-0.33277366
6	0x3f1b325b	0.6062371
7	0x3e49340a	0.19648758
8	0xbf846494	-1.0343194
9	0xbdb44c0c	-0.08803567
10	0x3edce1d5	0.43141046
11	0xbf4a5a8d	-0.7904442
12	0x3f5edde0	0.87057304
13	0xbe9c8619	-0.30571058
14	0x3d95efa6	0.073211
15	0xbf8029de	-1.0012777
16	0x3ca0c83c	0.01962673
17	0xbf45746c	-0.7713077
18	0x3d3d8e5c	0.046278343
19	0xbd0309d5	-0.0319918
20	0x3d80b552	0.06284584
21	0xbf23afbf	-0.6394004
22	0xbea929fb	-0.3303984
23	0xbf419437	-0.7561678
24	0x3e0db8fd	0.13840099
25	0x3f73d967	0.95253605
26	0xbd2ca1da	-0.04214654
27	0xbecc67ea	-0.3992303
28	0xbdf5848f	-0.11988174
29	0xbf6823b2	-0.90679467
30	0xbfa9adca	-1.3256161
31	0xbca92680	-0.020648241
32	0xbf6d4f9d	-0.92699605
33	0x3f54d1a4	0.83132386
34	0xbefc6889	-0.49298504
35	0x3f97eacc	1.1868529
36	0x3eebb149	0.46033695
37	0xbe3777ac	-0.17916745
38	0x3d9266c1	0.07148505
39	0xbf71646c	-0.94293857
40	0xbdbb2412	-0.09137739
41	0xbfa16c50	-1.2611179
42	0xbf0f49fd	-0.5597227
43	0xbe43c18c	-0.19116801
44	0xbe8d3723	-0.27581128
45	0x3e230241	0.15918829
46	0x3ed59413	0.41714534
47	0xbe8a6693	-0.27031383
48	0xbee90278	-0.45509696
49	0x3e80f078	0.25183463
50	0xbde00056	-0.10937564
51	0x3cc03656	0.02346341
52	0xbeb06e30	-0.34459066
53	0x3f3406ac	0.7032268
54	0xbf56a47c	-0.83844733
55	0x3f371d0f	0.71528715
56	0xbf99064d	-1.1955048
57	0xbec1e145	-0.3786718
58	0xbf228623	-0.63485926
59	0x3ee9eca5	0.45688358
60	0xbd40007c	-0.046875462
61	0x3fc3005d	1.5234486
62	0xbe727859	-0.23678721
63	0xbea609e7	-0.3242943
64	0x3edabd6f	0.4272265
65	0x3eeaebd0	0.45883036
66	0x3d7fc89f	0.062447187
67	0xbbc788a7	-0.0060892883
68	0x3ede3a5b	0.43403897
69	0xbf4088ab	-0.7520854
70	0x3e26160f	0.16219352
71	0x3f29499a	0.6612793
72	0xbdef9d2a	-0.116998985
73	0x3ee47637	0.4462144
74	0x3c465ebc	0.012107547
75	0x3f86309e	1.0483587
76	0x3ebcc238	0.36866927
77	0x3fbf6bc8	1.4954767
78	0x3c8fc20a	0.01754858
79	0xbdde7993	-0.10863032
80	0xbe396f79	-0.1810893
81	0x3e31655e	0.17323825
82	0xbdd1bfe1	-0.10241676
83	0x3e774ed2	0.24151161
84	0x3f0d4086	0.5517658
85	0x3f8dbae6	1.1072662
86	0xbf1e928b	-0.61942357
87	0xbe85d886	-0.26141757
88	0x39b86fce	0.00035178516
89	0xbdb6f38c	-0.08933172
90	0xbf15e645	-0.5855449
91	0x3c403b71	0.011732922
92	0x3f5a6922	0.8531667
93	0x3ef6e94c	0.48224866
94	0x3f71b9cf	0.94424146
95	0x3e96a437	0.2942216
96	0xbf0a2b18	-0.53972006
97	0xbf8a690b	-1.0813307
98	0x3e9f5a2f	0.31123492
99	0xbf42d8cb	-0.7611205
100	0x3eb15ae2	0.3463965
101	0x3f42a67d	0.7603529
102	0x3f14945e	0.5803889
103	0x3ee2528c	0.44203603
104	0xbf343349	-0.70390755
105	0xbeeaba5e	-0.45845312
106	0xbeca9bdc	-0.39572036
107	0x3de4413b	0.11145254
108	0xbeea46ed	-0.45757237
109	0xbf83ef6d	-1.0307442
110	0x3dfa4d09	0.122217245
111	0xbff62865	-1.9231077
112	0x3e46f222	0.19428304
113	0xbfd9d47c	-1.701797
114	0x3e4413e3	0.19148211
115	0xbf22b315	-0.6355451
116	0x3e7fba0f	0.2497332
117	0xbebcb6b0	-0.3685813
118	0x3ec54975	0.38532606
119	0x3ec22777	0.37920734
120	0x3f42c3ac	0.7607982
121	0x3d107acc	0.03527336
122	0x3ef22c7f	0.47299573
123	0xbf5728b3	-0.8404648
124	0x3e6ae2e3	0.22938113
125	0xbe6097fd	-0.21932979
126	0x3ef20e46	0.47276515
127	0x3f43fd72	0.765586
128	0xbf0eb3d6	-0.5574316
129	0x3f172aa0	0.59049416
130	0xbeba9d9f	-0.3644838
131	0x3f75d384	0.9602587
132	0x3f2ed772	0.68297493
133	0xbf1332d5	-0.5749944
134	0xbf1e43ee	-0.618224
135	0x3e817d6d	0.25291005
136	0xbf03b9c3	-0.51455325
137	0x3ec9c666	0.39409178
138	0x3ea7158e	0.32633632
139	0xbf86d150	-1.0532627
140	0xbf88df71	-1.0693189
141	0xbeff5824	-0.49871933
142	0xbe682688	-0.22670949
143	0xbe82f26d	-0.2557558
144	0x3f847b90	1.0350208
145	0xbf83ffbf	-1.0312423
146	0x3d3b26c0	0.04569125
147	0x3e46691b	0.19376032
148	0xbcddff0a	-0.027099151
149	0xbf4f8418	-0.81060934
150	0x3d1581e6	0.036500834
151	0x3e3645bd	0.1780004
152	0xbfb0e94b	-1.3821195
153	0xbe52c1bb	-0.20581715
154	0xbf983a28	-1.1892748
155	0x3efca9c4	0.4934827
156	0x3dbff61c	0.093731135
157	0xbf64c28c	-0.89359355
158	0x3f40e0c7	0.75342983
159	0xbdd6c151	-0.10486091

tcn.0.downsample.bias f4 [32]
0	0xba4112da	-0.0007365175
1	0x3bb06438	0.0053830408
2	0xbbe40f0a	-0.0069598006
3	0xba323676	-0.00067982764
4	0x3b30b964	0.002696597
5	0x3b3b0930	0.0028539412
6	0xbb3393a0	-0.0027401224
7	0xbbd80a68	-0.0065930374
8	0xbb5191a7	-0.0031977685
9	0xbbc5e3e5	-0.00603913
10	0xbbcdbd28	-0.0062786527
11	0x3bca9928	0.0061828084
12	0x3adade3c	0.0016698311
13	0xbc2954a0	-0.010335118
14	0x3b3e9ea9	0.0029086268
15	0xbb034977	-0.0020032802
16	0x39c5ce1c	0.00037728332
17	0xbbb342a0	-0.005470589
18	0xbb7c6392	-0.0038511497
19	0xbb3c61cc	-0.0028744815
20	0x3b124683	0.002231986
21	0x3b6a7823	0.0035777173
22	0xbb6ec59e	-0.0036433707
23	0x39d25dba	0.00040124153
24	0xbb7b64f4	-0.0038359733
25	0xba44b593	-0.00075038633
26	0xbac89806	-0.0015304096
27	0x3b15f1a7	0.0022879632
28	0x38ff2f23	0.000121681274
29	0xbb416d72	-0.0029514697
30	0x3b999536	0.004686977
31	0xbb8591a9	-0.004076202

tcn.1.conv1.weight f4 [64, 32, 3]
0	0x3cd3cce7	0.025854541
1	0x3c71c8f4	0.014757384
2	0x3d769932	0.060204692
3	0xbc65930e	-0.014012111
4	0xbe789c6a	-0.24278417
5	0xbe2431e2	-0.16034654
6	0xbe10f35e	-0.14155337
7	0xbd7f9071	-0.06239361
8	0xbe10bafc	-0.14133829
9	0x3cfa2133	0.030533409
10	0x3d7a0f70	0.06104988
11	0xbea492cd	-0.3214325
12	0xbd35b675	-0.044363458
13	0xbe25a5ab	-0.16176479
14	0x3e28affa	0.1647338
15	0xbd85f5bb	-0.0654101
16	0xbd8fa92b	-0.07014688
17	0x3d418e0f	0.04725462
18	0x3e9663cf	0.29373023
19	0xbdb84db8	-0.08999199
20	0x3de3c13c	0.11120841
21	0x3e74bcff	0.23900221
22	0x3ce6ce9f	0.028174696
23	0xbc274eea	-0.010211686
24	0xbb0abce0	-0.0021169707
25	0x3e333707	0.1750146
26	0x3cb7ab36	0.022420507
27	0x3da83591	0.08213342
28	0x3d4edd50	0.05050403
29	0x3ddef9c5	0.108874835
30	0x3d848638	0.06470913
31	0x3dfce0bd	0.12347553
32	0x3dcbf5c2	0.09958984
33	0xbd89c886	-0.067277
34	0x3c99c4ba	0.018770564
35	0xbdd68fd9	-0.104766555
36	0x3e191270	0.1494844
37	0x3e0c72d4	0.13715678
38	0xbd3f7c14	-0.04674919
39	0x3ded1c29	0.11577637
40	0xbde838b3	-0.113389395
41	0xbe125dbd	-0.14293571
42	0x3e35211f	0.17688416
43	0x3e030e3e	0.12798402
44	0x3e4c4f41	0.19952108
45	0xbd834995	-0.06410519
46	0xbddace6e	-0.106839046
47	0x3e0dc5e5	0.13845022
48	0x3df44306	0.11926846
49	0xbe1ab730	-0.15108943
50	0x3dd5bfd1	0.10436977
51	0x3d5509bf	0.052011248
52	0x3c8427f5	0.016132334
53	0xbe1a53be	-0.15071008
54	0xbe881860	-0.26581097
55	0x3e7cab9b	0.24674837
56	0xbc363e70	-0.011123285
57	0x3e2dead6	0.16984114
58	0xbd4005ec	-0.046880648
59	0xbe54ef6e	-0.2079446
60	0x3e219d2c	0.15782613
61	0x3d2b9cfe	0.041897766
62	0x3cf87015	0.030326882
63	0xbe37430c	-0.1789667
64	0xbda9ef5b	-0.082976066
65	0x3e43d934	0.19125825
66	0x3e87474b	0.2642158
67	0xbe96afe2	-0.29431063
68	0x3e2cebc9	0.1688682
69	0x3d76b730	0.060233295
70	0x3d6df71b	0.058096986
71	0x3ddfbd11	0.109247334
72	0x3cb6edf9	0.022330271
73	0x3cd5b545	0.026087413
74	0xbd84ae61	-0.06478573
75	0x3c09805d	0.008392421
76	0x3ce9d736	0.028545003
77	0x3c2aebea	0.010432223
78	0x3dd0ffbe	0.10205029
79	0x3ce791e9	0.028267818
80	0x3c95b3ec	0.01827427
81	0xbc0a8d6d	-0.00845657
82	0x3dad9c48	0.08477074
83	0xbe2c2a9e	-0.16813132
84	0x3ea32798	0.31866145
85	0x3d65fc95	0.056149084
86	0x3cb63942	0.0222441
87	0x3e2b48b9	0.1672696
88	0x3ddc16af	0.10746514
89	0x3dca0ca9	0.09865696
90	0xbdca2288	-0.098698676
91	0x3da1f262	0.07907559
92	0xbe90c16a	-0.28272563
93	0xbe1ed319	-0.15510215
94	0xbcc41980	-0.02393794
95	0x3d354f0a	0.04426483
96	0x3dd54c03	0.10414889
97	0x3b182e31	0.0023220892
98	0x3cd3ba97	0.025845809
99	0xbb14e768	-0.0022720937
100	0x3d8b8dcd	0.06814156
101	0xbdb52f8d	-0.0884696
102	0xbd00eae1	-0.031473998
103	0x3e60016d	0.21875544
104	0xbe04df17	-0.12975727
105	0x3d2df728	0.042472035
106	0xbdcf21cf	-0.1011387
107	0x3d8d520f	0.06900417
108	0xbdc2b7a3	-0.09507682
109	0xbd93d003	-0.072174095
110	0x3e0d7be7	0.13816796
111	0x3ddc8392	0.107672825
112	0x3e53bdca	0.20677868
113	0x3db9eeb1	0.0907873
114	0x3e87197c	0.2638663
115	0x3ca4a4f9	0.020098196
116	0x3e3ec1f3	0.18628673
117	0xbe627417	-0.22114597
118	0x3e8d1953	0.27558383
119	0xbe8284dd	-0.25491992
120	0xbe09f187	-0.13471042
121	0xbbdaa33f	-0.0066722925
122	0xbe34b7fd	-0.17648311
123	0xbdcfc289	-0.101445265
124	0x3c59fed4	0.013305385
125	0xbe31ecd0	-0.17375493
126	0x3d507f2a	0.050902523
127	0xbe12b335	-0.14326175
128	0xbddd104e	-0.107941255
129	0xbda05b12	-0.0782987
130	0xbd09cbd8	-0.033641666
131	0xbd9f9c1a	-0.07793446
132	0x3da5cdd0	0.08095896
133	0xbdeae1f6	-0.1146888
134	0xbe013394	-0.12617332
135	0xbcc47e37	-0.023985965
136	0x3e3a2cb3	0.18181114
137	0xbc44f553	-0.0120213805
138	0x3c7f934e	0.015599085
139	0xbc0acefa	-0.008472199
140	0xbc507788	-0.012723811
141	0x3d7a11f1	0.061052267
142	0xbe1ce4a9	-0.15321602
143	0xbdc1c831	-0.094620116
144	0x3ddf23fd	0.10895536
145	0x3e8c0c7e	0.2735328
146	0xbc97ab6e	-0.018514361
147	0x3df310ca	0.11868437
148	0x3dbe074f	0.09278738
149	0x3e22fe8f	0.15917419
150	0x3dd28178	0.102786005
151	0x3d427354	0.047473267
152	0x3e6d6f56	0.23187003
153	0xbc2a7287	-0.010403282
154	0x3d4603ea	0.048343576
155	0x3de4b49d	0.11167262
156	0xbda3d77e	-0.08000086
157	0xbcb1b05a	-0.021690536
158	0x3d2a3f2c	0.04156415
159	0x3ca55e24	0.020186491
160	0x3e370cb6	0.17875943
161	0x3defd1e4	0.11709955
162	0x3dcf19f0	0.10112369
163	0x3e7f28f7	0.2491797
164	0xbe777d23	-0.2416883
165	0xbda5b852	-0.08091797
166	0xbe5d1911	-0.21591593
167	0x3e47668f	0.19472717
168	0xbe8a5c8b	-0.2702373
169	0x3e0337dd	0.12814279
170	0xbe191966	-0.14951095
171	0xbdac9a01	-0.084278114
172	0xbdd0aebb	-0.10189577
173	0xbd2f9758	-0.042868942
174	0x3ca31a03	0.019909864
175	0x3df1ea37	0.11812251
176	0xbd221bda	-0.039577343
177	0x3da88941	0.08229304
178	0xbd88c6cc	-0.066785425
179	0x3e09d6ba	0.13460818
180	0x3dfc71f4	0.12326422
181	0x3dd55d12	0.104181424
182	0x3b1714cd	0.002305317
183	0xbe49df9b	-0.19714205
184	0xbd35c7bb	-0.04437993
185	0xbd9aa30a	-0.075506285
186	0x3ea5b602	0.32365423
187	0xbe3d8fff	-0.18511961
188	0xbd42fa2a	-0.047601856
189	0x3dbf83dc	0.09351322
190	0x3db0e3cd	0.086371996
191	0x3d1284ef	0.035771307
192	0x3d3f9c15	0.04677971
193	0x3e2d2485	0.16908462
194	0xbd95ced3	-0.07314839
195	0xbed4ca2e	-0.415605
196	0x3e015ffc	0.12634271
197	0x3dd74e02	0.10512926
198	0xbbe8d100	-0.007104993
199	0xbe326f91	-0.17425372
200	0xbd955895	-0.07292286
201	0xbd8af442	-0.0678487
202	0xbeae2b62	-0.34017473
203	0xbdc06342	-0.09393932
204	0xbda84bbb	-0.082175694
205	0xbc6ebfca	-0.014572093
206	0xbe2612f9	-0.16218175
207	0xbe4819f2	-0.19541147
208	0x3b50ae10	0.003184203
209	0xbe0b1b77	-0.13584696
210	0xbe7e7904	-0.24850851
211	0x3d0a3468	0.033741385
212	0xbdd23eeb	-0.10265907
213	0xbdde32f5	-0.10849563
214	0x3d0e4f71	0.03474373
215	0x3e8aa074	0.2707554
216	0x3c8b4efe	0.01700544
217	0xbcb0d4dd	-0.021585876
218	0x3e3977ef	0.18112157
219	0xbcac6547	-0.021044387
220	0xbd4626fd	-0.048377026
221	0x3e4f3d7b	0.20238297
222	0x3d972a2e	0.07381092
223	0xbd9a7a88	-0.07542902
224	0xbd0dd612	-0.03462798
225	0x3ce792f6	0.028268319
226	0xbe90ff39	-0.2831972
227	0x3e526f23	0.20550208
228	0xbb10d375	-0.0022098694
229	0xbe5a6b2e	-0.21329948
230	0x3dae8903	0.08522227
231	0xbec71975	-0.3888661
232	0x3d2682dc	0.04065214
233	0xbc7908ef	-0.015199884
234	0x3dda77ea	0.10667403
235	0x3e0b05af	0.13576387
236	0xbdc944f6	-0.098276064
237	0xbb73055a	-0.0037082047
238	0x3d04f116	0.03245648
239	0x3bdd815d	0.006759806
240	0xbbad0691	-0.005280324
241	0xbd931815	-0.07182328
242	0xbe3cbfa2	-0.18432477
243	0xbe0ba6fd	-0.1363792
244	0xbe399e94	-0.18126899
245	0xbe1a416d	-0.1506402
246	0x3dca851e	0.09888671
247	0xbe28bb8b	-0.16477792
248	0xbdaf41c0	-0.08557463
249	0xbdbc74b8	-0.0920195
250	0xbd993d02	-0.074823394
251	0xbeab4597	-0.3345153
252	0xbd93ded6	-0.07220237
253	0x3ec62621	0.38700965
254	0xbe77fb26	-0.242169
255	0x3e5fb114	0.21844894

tcn.1.conv1.bias f4 [64]
0	0xbb07c9f1	-0.0020719732
1	0xbb326e0c	-0.0027226238
2	0x3a0355c3	0.0005010033
3	0x39dec47c	0.00042489532
4	0x39d126ae	0.00039892405
5	0xb8efee25	-0.00011440766
6	0xb84bfbf8	-4.8633636e-05
7	0xba98452e	-0.0011617297
8	0xbb2ba3c5	-0.0026190144
9	0x39e14d36	0.0004297287
10	0x3734dab3	1.0779756e-05
11	0xbab8c38f	-0.0014096367
12	0xba05c43c	-0.00051027886
13	0x3a819bf7	0.00098884
14	0xba3c2590	-0.0007177228
15	0xbaa0fe5b	-0.0012282835
16	0xbab35f2a	-0.0013684977
17	0x3b573fe5	0.003284448
18	0x3a999755	0.0011718074
19	0xba1539d5	-0.00056925166
20	0xbb1349bb	-0.0022474367
21	0xba5da905	-0.0008455667
22	0xb9e7aa52	-0.00044186652
23	0x3b13f317	0.0022575313
24	0xbb808ecc	-0.0039232727
25	0xbb115780	-0.0022177398
26	0xbaaffa75	-0.0013426082
27	0x3a10d857	0.0005525401
28	0xbacf122f	-0.0015798266
29	0xb703e312	-7.861077e-06
30	0x3a05cc66	0.0005104005
31	0xbb163067	-0.0022917034
32	0xb9e4d2f1	-0.00043644712
33	0x39eeda72	0.00045557652
34	0x385ae023	5.2183994e-05
35	0xbad089cf	-0.0015910211
36	0x38844986	6.307945e-05
37	0x39a85a12	0.00032110565
38	0xbac1f227	-0.0014796898
39	0x3a018bad	0.0004941773
40	0x39f324dd	0.00046376037
41	0xb903e36e	-0.00012577858
42	0xba3e2964	-0.00072540925
43	0x3a325848	0.0006803316
44	0x399f6350	0.00030400837
45	0x386753b9	5.5152665e-05
46	0x39c97c30	0.00038430234
47	0xb8b8eee2	-8.818299e-05
48	0x39909d86	0.00027583184
49	0xb9a18896	-0.00030810077
50	0xba4cc248	-0.00078109326
51	0xbb8a232f	-0.00421562
52	0x3b0c8dfc	0.0021446934
53	0x3af17bbb	0.0018423715
54	0xb9d4ec0b	-0.00040611657
55	0x3b208e52	0.0024498892
56	0xb9d79f3d	-0.00041126637
57	0x39d985ee	0.0004148925
58	0xbb1eac8e	-0.0024211737
59	0xba06b70e	-0.00051389716
60	0xbaba7985	-0.001422689
61	0xba6034ed	-0.00085528084
62	0xb80bb328	-3.3307035e-05
63	0x392b2c99	0.00016324445

tcn.1.conv2.weight f4 [64, 64, 3]
0	0x3d4274ef	0.047474798
1	0x3d05c979	0.032662842
2	0xbc0cfcf2	-0.008605229
3	0xbd5c2738	-0.05374834
4	0x3e0f3aaf	0.1398723
5	0x3e20c7e1	0.15701248
6	0xbc99f118	-0.01879172
7	0x3e775b54	0.24155933
8	0xbc26fdab	-0.010192315
9	0xbd9e696d	-0.07734952
10	0xbe5e0e44	-0.2168513
11	0xbe12a0f7	-0.14319216
12	0xbdc00769	-0.093764134
13	0x3ca4f3a0	0.0201357
14	0xbe6fc1b1	-0.23413731
15	0xbc95eae8	-0.018300489
16	0x3d76caaf	0.060251888
17	0x3d78ab85	0.06071045
18	0x3d9b9a4a	0.07597788
19	0xbdeca6ba	-0.11555238
20	0x3c976def	0.018485038
21	0x3d7f68db	0.062355857
22	0x3d9c7534	0.07639542
23	0xbd8d3450	-0.068947434
24	0x3e0cdd1e	0.13756225
25	0x3dd3aeab	0.1033605
26	0x3d4bedcd	0.04978733
27	0xbda4d5c9	-0.08048589
28	0xbd9bd4df	-0.07608961
29	0xbe0d0b41	-0.13773824
30	0x3d84b3a4	0.06479576
31	0xbe0bf89f	-0.1366906
32	0x3e05973a	0.1304597
33	0xbe384111	-0.17993571
34	0xbd65f037	-0.05613729
35	0xbdb63f0d	-0.08898745
36	0x3d0f9974	0.035058454
37	0xbcf8cb20	-0.030370295
38	0x3d23aea8	0.039961487
39	0xbe514244	-0.20435435
40	0x3d6a7d49	0.057248387
41	0xbd2f87c4	-0.042854086
42	0xbce1eb20	-0.027577937
43	0x3c743486	0.014905101
44	0x3d402588	0.046910793
45	0xbdf63597	-0.1202194
46	0xbcde3184	-0.02712322
47	0xbc657679	-0.014005297
48	0xbe3213e6	-0.17390403
49	0xbd021cf5	-0.031765897
50	0x3c7b161a	0.015325094
51	0xb91c192b	-0.00014886695
52	0xbe2addda	-0.16686192
53	0xbd4c74a5	-0.04991593
54	0xbd20a102	-0.03921605
55	0x3d881ac2	0.06645729
56	0xbd8ae923	-0.067827486
57	0xbc2dd386	-0.010609513
58	0xbdda30ad	-0.106538154
59	0xbdd72565	-0.10505179
60	0x3e211d12	0.15733746
61	0xbe06075d	-0.13088746
62	0x3c88f151	0.016716631
63	0x3df361cb	0.11883887
64	0xbe171683	-0.14754681
65	0xbd6afe94	-0.05737169
66	0xbd3a338e	-0.045459323
67	0x3d0e8eaf	0.034804042
68	0x3d8a28bf	0.06746053
69	0x3d2e41b7	0.04254314
70	0x3d998416	0.074958965
71	0xbe21ffad	-0.15820189
72	0x3e114464	0.14186245
73	0xbe10854d	-0.1411335
74	0xbe493a80	-0.19651222
75	0x3d4b531d	0.04963981
76	0xbdc989ef	-0.09840762
77	0x3d1b6d56	0.037946068
78	0xbd5e42e0	-0.054262996
79	0x3e150327	0.14551984
80	0x3c876550	0.016527802
81	0x3dce92f7	0.10086625
82	0x3e8861cf	0.26637122
83	0x3d4cdafe	0.050013535
84	0xbc20d60f	-0.009816661
85	0x3bf9e710	0.0076264217
86	0x3c9e7737	0.019343955
87	0xbcf6f60e	-0.030146625
88	0x3c0d76f0	0.008634314
89	0x3d8ce1ad	0.06878982
90	0xbda12a22	-0.07869364
91	0x3e1159c7	0.14194404
92	0x3dc2885b	0.09498664
93	0xbe0d3bcb	-0.1379234
94	0x3e1dd8a5	0.15414675
95	0xbc7462c4	-0.014916126
96	0xbdc3a9cd	-0.09553871
97	0xbe0a66ab	-0.13515727
98	0xbdf13e33	-0.11779442
99	0x3d608048	0.05480984
100	0xbd65f0a2	-0.05613769
101	0xbd5aaf11	-0.053389613
102	0xbe1256a7	-0.14290868
103	0x3c993665	0.018702695
104	0xbe23b8c3	-0.1598845
105	0xbd30ee7e	-0.043196194
106	0xbc61d17f	-0.013782858
107	0xbcb70124	-0.022339411
108	0xbd2a5180	-0.04158163
109	0xbda683c4	-0.08130601
110	0xbe5d75a2	-0.21626905
111	0xbe0f6e3b	-0.14006893
112	0x3db3d1b1	0.0878023
113	0xbc686882	-0.014185073
114	0x3dc1d2bb	0.09464022
115	0xbe11131c	-0.14167446
116	0x3e18cc1c	0.14921612
117	0xbe7c9e14	-0.24669677
118	0x3c88a2f0	0.016679257
119	0xbdfa8348	-0.12232071
120	0xbe88c909	-0.26715878
121	0xbdb8e53b	-0.09028097
122	0xbd21e41c	-0.039524183
123	0xbc8bfd60	-0.017088592
124	0x3db92375	0.09039966
125	0xbda68723	-0.08131244
126	0x3da62a21	0.08113504
127	0xbd341f6b	-0.043975275
128	0xbd3645f6	-0.044500314
129	0x3d6da954	0.058022812
130	0x3ca398a6	0.01997025
131	0x3d5f6cff	0.054547306
132	0x3c5a7c18	0.01333525
133	0x3d9f6853	0.0778357
134	0x3d6cf507	0.057850864
135	0xbdbcc340	-0.092169285
136	0x3d64cadc	0.055857524
137	0xbd95e75c	-0.07319519
138	0x3de67637	0.112530164
139	0xbda38e44	-0.079861194
140	0xbd9e2b45	-0.07723097
141	0xbe0f3bc2	-0.1398764
142	0x3c1a54ec	0.009419661
143	0x3e21ceaa	0.15801492
144	0xbd073849	-0.033012662
145	0x3c0a4f14	0.008441705
146	0x3ab6a56f	0.0013934801
147	0x3c6d061b	0.014466788
148	0x3d570267	0.052492525
149	0xbb4d908c	-0.0031366674
150	0x3ce634cd	0.02810135
151	0x3c3c0494	0.011475701
152	0x3b37289d	0.0027947791
153	0x3c6f9f78	0.014625423
154	0xbd4fdbe8	-0.05074683
155	0xbe528edd	-0.2056231
156	0xbd76b5fa	-0.06023214
157	0xbd9cb7f9	-0.076522775
158	0xbdd667f6	-0.10469048
159	0xbe18c6a5	-0.14919527
160	0x3b90b37f	0.004415929
161	0x3e21881c	0.15774578
162	0x3d01cdfd	0.031690586
163	0x3af61b08	0.0018776366
164	0x3ac9407f	0.0015354304
165	0xbd6d3efe	-0.057921402
166	0xbdbdc5ca	-0.09266241
167	0x3e3b6db6	0.1830357
168	0x3e2fda00	0.17173004
169	0xbe79384a	-0.24337879
170	0x3d2e5526	0.042561673
171	0x3e5049d0	0.20340657
172	0xbd3db601	-0.04631615
173	0xbd26d784	-0.040732875
174	0x3d8e9370	0.06961715
175	0x3dbe5921	0.09294344
176	0xbe402d67	-0.1876732
177	0xbb278d5e	-0.002556644
178	0x3e387878	0.18014705
179	0xbd8ff0a8	-0.070283234
180	0xbd914b39	-0.07094426
181	0x3cc7e893	0.024402892
182	0xbc85f6f4	-0.016353108
183	0x3e0a0845	0.13479717
184	0xbcf7cc22	-0.030248705
185	0x3d729f34	0.05923386
186	0x3d633f25	0.05548014
187	0xbe1d1e69	-0.15343632
188	0xbda24448	-0.0792318
189	0xbde83070	-0.11337364
190	0x3c857f07	0.016295923
191	0x3cc10bfd	0.023565287
192	0x3ac3d7a8	0.001494159
193	0x3d747339	0.059680197
194	0xbd80017d	-0.06250284
195	0x3cea216a	0.028580386
196	0x3c8924f8	0.01674126
197	0x3c7763db	0.015099491
198	0xbe08674c	-0.13320655
199	0x3e06620c	0.1312334
200	0x3d529704	0.05141355
201	0xbd8e8546	-0.06959014
202	0x3e6895d8	0.22713411
203	0x3def4d27	0.116846375
204	0x3da02d3b	0.07821127
205	0x3e096909	0.13418974
206	0xbdf4740a	-0.11936195
207	0xbe07a489	-0.13246359
208	0xbd87d84f	-0.066330545
209	0xbdb0f3ed	-0.08640275
210	0xbdc4edc2	-0.09615661
211	0x3e835450	0.25650263
212	0x3d2c2fcb	0.042037766
213	0xbd87d6bb	-0.066327535
214	0xbd221674	-0.039572194
215	0x3e24d3b6	0.16096386
216	0x3df5f7e4	0.12010172
217	0x3b0e267c	0.002169042
218	0x3dc5e93c	0.096636266
219	0x3d02f471	0.0319714
220	0x3d6a603c	0.057220683
221	0x3dc42f79	0.09579367
222	0x3da85b86	0.08220582
223	0x3d59bf8d	0.053161193
224	0x3e1b05de	0.15138957
225	0x3d5780d2	0.052613087
226	0x3d20d326	0.039263867
227	0x3e244429	0.16041626
228	0x3c51b5fb	0.012799735
229	0x3e4480e3	0.19189791
230	0xbddf549f	-0.10904812
231	0x3cb12af7	0.021626933
232	0xbcae2386	-0.021257173
233	0x3c691ebc	0.014228519
234	0x3bd35ed7	0.006450515
235	0x3d7ac205	0.061220188
236	0xbd88e638	-0.06684536
237	0x3cef253e	0.029192563
238	0x3d88625a	0.06659384
239	0xbcb40caa	-0.021978695
240	0x3db8b8a7	0.09019595
241	0x3d8b451d	0.06800292
242	0x3d17e230	0.037080944
243	0x3dbd8a90	0.09254944
244	0x3cce31f0	0.025170296
245	0xbc77a5d7	-0.015115223
246	0xbdefb3fc	-0.11704251
247	0x3d8ee649	0.06977517
248	0x3d195378	0.037433118
249	0xbe5feb18	-0.21867025
250	0x3c939249	0.01801409
251	0x3e1170d7	0.14203201
252	0x3da2dab5	0.07951871
253	0xbd4ae13c	-0.049531206
254	0xbdfa57b5	-0.1222376
255	0x3d139ae6	0.036036395

tcn.1.conv2.bias f4 [64]
0	0xb8f0cac4	-0.0001148186
1	0xba95a555	-0.0011417071
2	0x3899f9ec	7.34216e-05
3	0xbb494676	-0.0030712164
4	0xbac305ab	-0.0014879009
5	0x3aa3bafb	0.0012491638
6	0x3b7c6f54	0.0038518505
7	0xba6367ad	-0.00086748117
8	0xbb6cfe29	-0.0036162233
9	0x3a8328d7	0.0010006678
10	0x3ae3b6bb	0.0017373184
11	0x3a2569bb	0.00063100056
12	0x395a1d50	0.0002080102
13	0xbb143905	-0.0022616994
14	0x399bac57	0.00029692307
15	0x39eed3ea	0.00045552786
16	0x38d46711	0.000101281454
17	0xb8d81305	-0.00010303225
18	0x3ab7015e	0.00139622
19	0x39a9b63e	0.00032369973
20	0xba19b3b8	-0.0005863267
21	0x39a07827	0.000306071
22	0x3b3f7454	0.0029213624
23	0xba9f085e	-0.0012133231
24	0x3a16d94e	0.0005754427
25	0x39a2f2c2	0.00031079917
26	0xbb4c46a4	-0.0031170035
27	0xbaaad0dc	-0.0013032216
28	0x3b32f85f	0.0027308685
29	0x3a45f5b4	0.0007551566
30	0x3ab3ec6a	0.0013727073
31	0xb8f7ed18	-0.0001182204
32	0xba3bdce0	-0.0007166397
33	0xb882b184	-6.231948e-05
34	0xbbcbaa80	-0.0062153935
35	0x39065902	0.00012812394
36	0x3b13d791	0.0022558908
37	0x39f9808c	0.00047588756
38	0x3aae19bc	0.0013282816
39	0xba98150a	-0.001160295
40	0xb98b330b	-0.00026550176
41	0x3a46c1b6	0.0007581966
42	0xba363b88	-0.000695162
43	0xbbbd8c6c	-0.005784562
44	0xb9745ce5	-0.00023304259
45	0x38452feb	4.7013087e-05
46	0xba0f1841	-0.0005458631
47	0xbaf04c71	-0.0018333328
48	0xbb4ec098	-0.00315479
49	0x39452e79	0.00018804696
50	0xbb049556	-0.0020230613
51	0x3b0001cd	0.0019532323
52	0x39028852	0.0001244855
53	0xb5f16a4c	-1.7986836e-06
54	0xb91211a5	-0.00013930218
55	0xbb220cf7	-0.0024726966
56	0x389d3ff2	7.498254e-05
57	0x3a23a571	0.0006242609
58	0x3975c0ec	0.0002343689
59	0xba9272fc	-0.0011173184
60	0xba9f50aa	-0.0012154777
61	0x3b358436	0.0027697212
62	0xbad01bcf	-0.0015877428
63	0xbb652cc7	-0.0034969316

tcn.1.downsample.weight f4 [64, 32, 1]
0	0xbeb0d741	-0.34539226
1	0x3e66af6d	0.22527857
2	0x3f40fb3d	0.7538336
3	0xbd50e1a1	-0.050996426
4	0xbbb42e7c	-0.0054987054
5	0xbed87b24	-0.4228145
6	0x3efab101	0.48963168
7	0xbcb2d9b2	-0.02183232
8	0x3dec5a14	0.115406185
9	0x3eff9e8b	0.49925646
10	0xbb757873	-0.0037455827
11	0x3ec75ba9	0.3893712
12	0x3e785577	0.24251352
13	0x3b08e719	0.0020889698
14	0x3e10dac3	0.14145951
15	0xbe537040	-0.20648289
16	0x3c0f7ec0	0.008758247
17	0xbe20e945	-0.15713985
18	0xbea4cc78	-0.32187247
19	0xbe0b12f0	-0.13581443
20	0x3d866a36	0.06563227
21	0xbc9c4aff	-0.01907873
22	0x3ecafd49	0.39646366
23	0x3dcce0ea	0.100038365
24	0xbc91f5d8	-0.017817423
25	0x3eb2c296	0.34914082
26	0x3ebcfad8	0.3691013
27	0xbec5d0b3	-0.38635787
28	0xbe7a3377	-0.24433695
29	0x3e826d28	0.25473905
30	0x3e5216e2	0.20516542
31	0xbe7cecf7	-0.2469977
32	0x3ea767f7	0.32696506
33	0x3da8857b	0.082285844
34	0x3ed731e6	0.42030257
35	0xbe430869	-0.19046177
36	0xbd2af480	-0.04173708
37	0xbeb9841a	-0.36233598
38	0x3f06d03e	0.526615
39	0xbe1a20b0	-0.15051532
40	0x3edb3898	0.42816615
41	0xbed2f915	-0.4120566
42	0x3ea22f0c	0.3167652
43	0xbde3ab58	-0.111166656
44	0x3e2ac213	0.16675596
45	0xbd96b723	-0.07359149
46	0xbec78a70	-0.38972807
47	0x3e84cf78	0.25939536
48	0xbeca32e9	-0.39491966
49	0x3e137853	0.14401369
50	0xbd0d142d	-0.03444307
51	0xbde987ca	-0.11402853
52	0x3e86e350	0.263453
53	0x3c44833e	0.011994181
54	0xbe3e97a5	-0.18612535
55	0x3c8046e1	0.015658798
56	0x3e64271d	0.22280546
57	0x3e0e5053	0.13897829
58	0x3d1e714c	0.038682267
59	0xbe933f3a	-0.28759176
60	0x3e1d75f3	0.15377025
61	0x3e83d8e5	0.25751415
62	0xbe0aaf64	-0.13543469
63	0xbe029b19	-0.12754478
64	0xbf10dec8	-0.5658994
65	0xbe94eb07	-0.29085562
66	0xbe16940d	-0.14704914
67	0xbce74fdc	-0.028236322
68	0x3e2d0679	0.16897
69	0xbea4cdcf	-0.3218827
70	0xbdf2ca22	-0.1185496
71	0x3ef9ab90	0.48763704
72	0xbe5a8bc0	-0.21342373
73	0x3eb367c9	0.3504012
74	0x3ec2dc60	0.38058758
75	0xbdfe0eed	-0.124051906
76	0xbefa4ead	-0.4888815
77	0x3e0e16c8	0.13875878
78	0xbe34a076	-0.17639336
79	0xbe63de55	-0.22252782
80	0xbe363ef7	-0.17797457
81	0xbe1b238c	-0.15150279
82	0xbd8bdd82	-0.06829359
83	0x3e50faf8	0.20408237
84	0x3f01d56a	0.5071627
85	0xbdbc1eb4	-0.09185544
86	0x3e4d33f8	0.20039356
87	0xbf2eb883	-0.6825029
88	0x3d2a12ee	0.04152196
89	0x3cdffdb5	0.027342657
90	0xbeb987cc	-0.36236417
91	0x3e0a19ab	0.13486354
92	0x3ee422e4	0.4455787
93	0x3e40d641	0.18831731
94	0x3e2a3315	0.16621049
95	0xbd47508c	-0.0486608
96	0xbed1abb2	-0.40951306
97	0x3cf41970	0.029797286
98	0xbce12909	-0.027485387
99	0xbd8c11a0	-0.06839299
100	0x3ed762a2	0.42067438
101	0x3eb56523	0.35428724
102	0xbcfbbc32	-0.030729387
103	0x3e389350	0.18024945
104	0xbe1ba925	-0.15201242
105	0x3f0c85a6	0.5489143
106	0x3ea27d08	0.31736016
107	0x3e8c7ba1	0.2743807
108	0x3e89b6a0	0.26897144
109	0xbc8e32fd	-0.017358297
110	0xbe60ea13	-0.21964292
111	0x3e852dfa	0.2601164
112	0xbd9e1612	-0.07719053
113	0xbe3fd6d2	-0.18734291
114	0x3d77d779	0.060508225
115	0xbd5bf34d	-0.053698827
116	0xbe0ff70d	-0.14059086
117	0xbeb76e59	-0.35826376
118	0xbe828a47	-0.25496122
119	0x3e9d2b71	0.30697206
120	0x3e3ab77b	0.18234055
121	0x3e9d2cdd	0.3069829
122	0x3e9e51d4	0.30921805
123	0xbdb4f7ee	-0.08836351
124	0xbd705fa7	-0.05868497
125	0x3e66fe01	0.22557832
126	0xbedac7e1	-0.4273062
127	0x3de81368	0.113318264
128	0x3dad21f3	0.08453741
129	0x3d53450b	0.051579516
130	0x3e0a99da	0.13535252
131	0x3dc3e966	0.095660016
132	0x3ecbbb85	0.39791504
133	0xbd4542d0	-0.04815942
134	0x3d88fcf4	0.06688872
135	0xbcb66806	-0.0222664
136	0x3e9f9bec	0.31173646
137	0x3d5f40ac	0.054505035
138	0x3d8b7d74	0.06811038
139	0x3dfc4938	0.12318653
140	0xbeba2f07	-0.36364004
141	0x3e859f40	0.2609806
142	0x3e9402d5	0.2890841
143	0x3ddd5e74	0.10809031
144	0xbe999479	-0.29996088
145	0x3d84c7a8	0.06483394
146	0x3dd452c0	0.10367346
147	0x3e6369f6	0.2220839
148	0xbe2fb943	-0.17160515
149	0x3c437911	0.01193072
150	0xbed663c4	-0.4187299
151	0x3d8c866c	0.068615764
152	0xbf07cd8d	-0.5304802
153	0x3eda1acf	0.42598578
154	0xbddeddaa	-0.10882123
155	0xbe88f332	-0.26748043
156	0xbebc955d	-0.36832705
157	0x3ef93165	0.48670498
158	0xbe3e86d8	-0.18606126
159	0xbe78c836	-0.24295124
160	0xbcf8ea02	-0.030385021
161	0xbe32e55d	-0.17470308
162	0xbdd23611	-0.102642186
163	0xbd15bad0	-0.03655511
164	0xbef47e23	-0.47752485
165	0xbdcf35d7	-0.10117691
166	0xbe422a27	-0.18961392
167	0xbdd5515b	-0.10415908
168	0x3d1c4dac	0.03816001
169	0x3e81cef8	0.25353217
170	0xbeaf04ab	-0.3418325
171	0x3e2e8137	0.17041479
172	0xbe8d2df3	-0.2757412
173	0xbd8df605	-0.0693169
174	0x3ed0d56d	0.4078783
175	0xbe8d41f3	-0.27589378
176	0x3e9271a0	0.28602314
177	0xbd8cae20	-0.06869149
178	0x3d1ae64d	0.03781729
179	0xbd4f6d8e	-0.05064159
180	0xbb9d29ee	-0.004796258
181	0x3de58b80	0.11208248
182	0x3da579a7	0.08079844
183	0xbe34ecdd	-0.17668481
184	0x3e9aa9ed	0.30207768
185	0x3ebbb7d0	0.36663675
186	0xbe2ae585	-0.16689117
187	0xbe9f8c8a	-0.3116191
188	0x3e2ffd07	0.17186366
189	0x3d73ac45	0.05949046
190	0x3c727511	0.014798419
191	0xbe686f78	-0.22698772
192	0xbe5197db	-0.20468085
193	0xbeb72c37	-0.3577592
194	0xbe072b73	-0.13200168
195	0x3f148e9b	0.580301
196	0xbe4f71b6	-0.20258221
197	0x3ed06b26	0.40706748
198	0x3d28546c	0.041096136
199	0xbdb1832a	-0.08667596
200	0xbdd20c0b	-0.10256203
201	0xbd91d7e3	-0.07121255
202	0xbec20c6b	-0.379001
203	0xbdb2fc90	-0.08739579
204	0x3c098247	0.008392877
205	0xbcc06811	-0.023487123
206	0x3ed40f5a	0.41417962
207	0xbe2609e2	-0.16214707
208	0x3c88aaf3	0.016683077
209	0x3db91008	0.09036261
210	0xbe17724f	-0.14789699
211	0xbde6a23f	-0.11261415
212	0x3e9f6f88	0.3113978
213	0x3cc61e89	0.024184482
214	0xbe8cac2f	-0.27475116
215	0x3e7ae10c	0.24499911
216	0x3e81faa9	0.2538655
217	0xbd82f24b	-0.0639387
218	0xbcc1ae5c	-0.023642711
219	0x3eea42aa	0.45753986
220	0xbdac8186	-0.08423142
221	0xbe704816	-0.23464999
222	0xbd5614a5	-0.052265782
223	0xbe9460a9	-0.28979996
224	0x3e8b4a18	0.27204967
225	0x3e8a68ee	0.2703318
226	0x3dbd216e	0.09234892
227	0xbef195b2	-0.4718452
228	0xbe087e4a	-0.13329425
229	0x3e04c4c5	0.12965687
230	0x3df49d3f	0.11944055
231	0x3dbf7c3d	0.093498684
232	0x3e9b24e8	0.30301595
233	0x3e8d9a5c	0.2765683
234	0x3e9980ae	0.29980987
235	0xbe253beb	-0.16136138
236	0x3d3b2c43	0.04569651
237	0x3e3b2efe	0.18279645
238	0xbcf1f11b	-0.029533913
239	0xbe11d155	-0.1424001
240	0x3dec128a	0.115269735
241	0xbd6c36af	-0.057669338
242	0x3d74b911	0.059746806
243	0x3e21e6a1	0.15810634
244	0xbe3eec4f	-0.18644832
245	0xbc97f2a5	-0.01854832
246	0x3e5c43ef	0.2151029
247	0xbe1282eb	-0.14307754
248	0x3e0da54a	0.13832584
249	0xbea606a8	-0.32426953
250	0x3db6b27f	0.08920764
251	0x3e20632e	0.15662834
252	0x3f146542	0.5796701
253	0x3e05d31f	0.13068818
254	0x3da21107	0.07913404
255	0x3e950b46	0.29110163

tcn.1.downsample.bias f4 [64]
0	0xbb9b4cec	-0.0047393944
1	0xbab36098	-0.0013685403
2	0x388a44a5	6.593139e-05
3	0xbbd68be5	-0.0065474384
4	0xbb1a8dc7	-0.002358304
5	0x3abee069	0.0014562729
6	0x3b9a55ad	0.0047099204
7	0xbb8eaf07	-0.004354361
8	0xbbbdbefa	-0.0057905884
9	0x3ac73962	0.0015199597
10	0x3b3086dd	0.0026935854
11	0x3abc85d9	0.0014383151
12	0x397735be	0.00023575776
13	0xbb4f58f9	-0.0031638725
14	0x39c5d748	0.00037735165
15	0x3a2120ef	0.000614657
16	0x39baa6e0	0.00035601016
17	0xb9239177	-0.00015599081
18	0x3b27191d	0.0025497146
19	0x3a8cc29f	0.0010739154
20	0xbae9858c	-0.0017816289
21	0x3a19e797	0.00058709964
22	0x3b617f58	0.0034408178
23	0xbadec47b	-0.0016995812
24	0x3b57da60	0.0032936558
25	0x3a810d7e	0.000984594
26	0xbb4ec147	-0.0031548308
27	0xbbd0f92f	-0.0063773612
28	0x3b8849ed	0.0041592033
29	0x3b2fbbbb	0.0026814777
30	0x3ab65e7a	0.0013913654
31	0xb8ecbcdd	-0.000112885355
32	0xbb21493d	-0.0024610304
33	0x39382e30	0.00017564814
34	0xbbe3ad97	-0.0069481838
35	0x3a58e8a9	0.0008274415
36	0x3b2b5196	0.0026141158
37	0x3a861fa6	0.0010232821
38	0x3b09fa5e	0.0021053771
39	0xbba4a5cf	-0.0050246487
40	0xbb2ecc87	-0.00266722
41	0x3b047cea	0.0020216056
42	0xba7c6290	-0.0009627724
43	0xbbbdb998	-0.0057899468
44	0xb95b921c	-0.00020939898
45	0x395271e8	0.00020069594
46	0xba4ad72c	-0.00077377516
47	0xbb2c03f9	-0.0026247485
48	0xbb5931e8	-0.0033141319
49	0x3b2a3268	0.0025969986
50	0xbb1c924a	-0.0023890906
51	0x3b2d6d6a	0.002646292
52	0x39003b5d	0.00012229146
53	0x367931d6	3.71329e-06
54	0xb9aa42bc	-0.00032474648
55	0xbb514a06	-0.003193499
56	0x38e215fc	0.00010780615
57	0x3a6838b8	0.00088585494
58	0x3a173087	0.0005767424
59	0xba8ebcd8	-0.001089002
60	0xbae49e23	-0.0017442148
61	0x3b57c120	0.0032921508
62	0xbb34e6ba	-0.0027603344
63	0xbb8a5c0d	-0.004222399
