server+app+modeltraining/simple_server/outputs/v2/checkpoints/best.pt (torch, 152457 bytes, 11 tensors)

lstm.weight_ih_l0 f4 [256, 5]
000000 d9 cc a7 3d ef 0c cf bd ed 2d 8c 3d 3c 92 a4 bd
       0.081933685 -0.10109889 0.06844697 -0.080357045
000010 6f b5 5e 3c 8c f3 30 bc 90 33 d4 bd 77 6c 2d 3d
       0.013593062 -0.010800254 -0.10361397 0.04233977
000020 5d 99 28 bd e0 c4 ec bb 47 6c 2a bc 8a 12 17 bc
       -0.041161884 -0.0072256178 -0.010401792 -0.009220729
000030 52 7c 97 bd 8b 1b 95 3c 0c eb 93 3d 94 b2 9c bc
       -0.07396759 0.01820161 0.07222566 -0.019128121
000040 ee 13 00 bb 09 26 81 bd 45 52 98 3b 84 59 b0 bd
       -0.001954313 -0.06306083 0.004648479 -0.08610824
000050 f2 fe 8d bd 8f 44 d7 bd 4a 1d 12 bc f0 a1 a0 bc
       -0.069333926 -0.105111234 -0.008918116 -0.019608468
000060 ae 1c 95 bd 58 cc 35 bc 82 7b a8 3c d3 76 ee 3d
       -0.07280861 -0.011096083 0.020566706 0.11643758
000070 c2 da 0c bd 0e c7 b1 3d 34 ce 05 bc 6e ae e3 3c
       -0.03438831 0.08680545 -0.008166838 0.027793135
000080 69 24 a2 3b 13 6c 20 3e 6e f1 7f 3d f6 5f 23 3d
       0.004948188 0.15666227 0.062486105 0.039886437
000090 d0 f9 b0 bc 6f cb 82 bd 06 f6 94 3c 46 e3 37 bd
       -0.021603495 -0.06386458 0.01818372 -0.04489448
0000a0 28 b0 a4 3d e4 87 e0 3d 28 c6 02 be ae 63 99 bc
       0.08041412 0.10963419 -0.12770903 -0.018724289
0000b0 d7 15 03 bd 8e 83 6c bd c5 50 c9 3c f0 d3 f8 37
       -0.03200325 -0.057742648 0.024574647 2.9662595e-05
0000c0 59 cf cb bc 07 f9 c5 bd 18 fb 1b bd 88 07 82 bd
       -0.024879145 -0.09666639 -0.03808126 -0.06349093
0000d0 54 20 c4 3c 12 21 c2 3b 87 b5 0d 3d 39 a3 78 bb
       0.023941197 0.0059243524 0.034596946 -0.0037939085
0000e0 60 38 fe bb d1 07 94 bc 16 63 72 bd bb 16 7a 3c
       -0.0077581853 -0.018070133 -0.059176527 0.015264208
0000f0 be 55 54 3d a6 96 82 3d 73 8f ee bc b6 60 a2 3d
       0.051839583 0.0637639 -0.029121136 0.079286024
000100 40 30 e9 bd 10 bf 08 3e d6 d4 a8 bc 1d 86 5e 3c
       -0.11386156 0.13354135 -0.0206093 0.01358178
000110 61 7d 07 3e ec 89 e8 bc 12 fc 0a 3d c7 70 59 3d
       0.13231422 -0.028386079 0.0339318 0.05308607
000120 80 75 15 3b 38 4a 45 bd 8d f7 ba 3b e3 62 31 bd
       0.002280563 -0.048166484 0.00570578 -0.043307196
000130 9f 78 6a bc cb 27 1f bb e7 d5 21 3e 44 ce fd 3c
       -0.014310985 -0.0024285193 0.15804254 0.030982144
000140 23 1a c9 3c d2 96 06 bc 94 8a 76 bc c4 6d 36 bd
       0.024548596 -0.008214669 -0.015047688 -0.044538274
000150 31 ee bc 3d 13 b2 63 3d 1e b9 66 bc e6 ba 37 3d
       0.09225119 0.055589747 -0.014082221 0.044855975
000160 35 32 90 bd 05 af 05 3d b4 1b 2c 3d bb 73 66 3d
       -0.07040826 0.032637615 0.042018607 0.056262713
000170 86 fc ff bd 63 0e 13 bd 26 37 8f 3d 9c 21 9b bc
       -0.12499337 -0.035902392 0.069929406 -0.018936925
000180 29 7c ff 3c 63 c5 4e bd 79 d4 9e bd ad 83 e3 3d
       0.031187134 -0.05048121 -0.0775537 0.111090995
000190 b1 2e 1f bc c8 38 24 3c 63 5f 19 bd 96 f6 d0 3d
       -0.009715722 0.010023303 -0.037444483 0.102032825
0001a0 df af cc 3c 64 2d 84 bd 13 07 5e bd 5b 53 74 3c
       0.024986206 -0.0645397 -0.054205965 0.014912452
0001b0 5a aa 5f bd 91 84 8e bd 62 c8 2b bc 64 ce 0d 3d
       -0.05460582 -0.06958879 -0.010484787 0.034620658
0001c0 2b 9c 37 bd e3 72 49 bd 86 4b 49 bd f5 f4 8f bd
       -0.044826668 -0.04918183 -0.04914429 -0.07029144
0001d0 3e b7 b3 bd 5b ef 35 bd f2 29 ba bc 65 44 16 bc
       -0.08775185 -0.04441772 -0.02272508 -0.00917158
0001e0 12 d9 bc bc 88 0b 1e 3d af 9a 8b bd b3 14 92 3c
       -0.023052726 0.038585216 -0.06816613 0.017832136
0001f0 d4 aa 11 bd cd cc 43 3d 65 5c 5d 3d 53 53 27 ba
       -0.035563305 0.047802735 0.054043192 -0.0006382961
000200 47 11 36 3c 99 e8 3f 3c 06 6f b2 3d 64 41 29 bd
       0.011112518 0.01171317 0.08712582 -0.041322127
000210 93 99 00 3d 7e 16 8b 3d bf e3 25 bd 7a 16 f9 bc
       0.03139646 0.067913994 -0.0405004 -0.030406225
000220 a8 e0 47 bd b5 b3 dc bc 54 5a 41 bd 9d 47 12 bb
       -0.048798233 -0.02694116 -0.047205284 -0.0022320517
000230 84 4f 24 be 2f 04 17 bd b9 6c 9f 3c f7 cb 28 3d
       -0.16045958 -0.036869224 0.019461023 0.04121014
000240 4e 13 bd bb 41 10 53 3d d9 06 49 bb b1 ef ce bc
       -0.0057701236 0.051529173 -0.0030674248 -0.025260778
000250 73 56 9f bc 67 13 68 3d 10 f4 c5 3d fc e4 92 bb
       -0.019450402 0.05665913 0.09665692 -0.0044828635
000260 13 6c a9 3b b2 3f 3b bc c0 57 9b bd 0e d3 5b 3d
       0.005170354 -0.01142876 -0.07585096 0.053668074
000270 a0 ac 1d bd 80 e1 3f bd 63 ce 13 bd 4f ee 3b 3d
       -0.038494706 -0.046845913 -0.036085498 0.045881566
000280 f4 4d 82 3d f5 bd 25 bd 90 93 3a bd 31 ef 2c bd
       0.06362525 -0.04046436 -0.045550883 -0.0422203
000290 52 37 61 3d eb 8f 99 bd a4 8a fc 3c ec 71 c9 3c
       0.0549844 -0.07498153 0.030827828 0.024590455
0002a0 7e 3a 4a bd d7 f2 03 3e a0 9a d7 3d 81 57 e4 bd
       -0.04937219 0.12885605 0.10527539 -0.111495025
0002b0 be d3 9a 3c f9 c1 39 bd d3 39 54 bc 32 8a 11 bd
       0.018899795 -0.045351002 -0.0129532395 -0.035532184
0002c0 47 17 32 bd 6b a2 5e 3d f5 35 5f 3d a6 eb dd bc
       -0.04347923 0.054354113 0.054494817 -0.027089905
0002d0 9d 84 90 bd 8e 9c 2e bd 02 d5 6c bc 36 6f 71 bb
       -0.07056544 -0.04262977 -0.014455082 -0.0036839969
0002e0 a4 d0 b3 bd 2a 05 1b be 53 fc c3 bd d3 3f 37 bd
       -0.087800294 -0.15138689 -0.095696114 -0.044738602
0002f0 9f 20 d2 3d 56 9a 1c bd 92 e8 8b 3d 26 e0 99 bc
       0.10260128 -0.038233124 0.06831469 -0.01878364
000300 d2 42 91 bb c9 0a a9 bd 89 77 94 bc 60 5f d9 3d
       -0.0044330144 -0.0825401 -0.018123405 0.106138945
000310 fe 6c 91 bc ba 89 47 3d 16 a0 d4 bd e7 32 00 bd
       -0.017752167 0.04871533 -0.103820965 -0.031298544
000320 4f 57 9a 3c 30 49 66 bd 49 49 e7 3b bd 9b a9 3a
       0.01884046 -0.05622214 0.007058297 0.001294009
000330 82 ce 72 3d b8 03 4d bc b0 34 b2 3c 60 b9 c0 bc
       0.059278972 -0.012513094 0.021753639 -0.023525894
000340 1e 14 ea 3b fb 4d 89 3d 33 58 8f bd d1 31 a8 3d
       0.0071435114 0.06704327 -0.069992445 0.08212627
000350 72 49 69 3d f5 9a 1d bd ae ba 83 bc d3 11 0b bc
       0.05695481 -0.038477857 -0.016080227 -0.008488136
000360 e1 79 80 bd bc 35 d5 bd 06 09 58 bd 86 49 a2 3d
       -0.062732466 -0.1041064 -0.05274298 0.0792418
000370 31 2e d5 3c fc 2a a6 3c f1 0f d5 3c ed 29 a5 3d
       0.026023002 0.020284168 0.026008578 0.08064637
000380 8f f0 1e 3c f0 95 74 3d a4 af ad 3c d7 90 15 bd
       0.009700908 0.059713304 0.021201916 -0.036515083
000390 6e b6 b0 bb 74 3b b4 bc d6 6b 50 3b ad 58 4c bc
       -0.005392841 -0.022001006 0.0031802556 -0.012472314
0003a0 dd 0a 8b 3d 76 2a c5 3d 55 7e 30 3d 16 b5 fa 3c
       0.067891814 0.096272394 0.04308923 0.030603927
0003b0 18 8f 8e bd 67 dc 8d 3d b9 cb 1f 3c f8 40 0c bc
       -0.06960887 0.06926804 0.009753161 -0.008560412
0003c0 b8 9f 3f bc 53 ed 3b 3d 23 1e 12 bc ce b2 05 3c
       -0.011695795 0.045880627 -0.008918318 0.008160306
0003d0 ad e3 87 bd e0 31 8c 3d 2a 3f 5a 3d 73 d1 8f bd
       -0.066352226 0.068454504 0.053282894 -0.07022371
0003e0 1a 4d 6c 3d 32 e8 86 3d 6d b7 22 be 7d 1d 46 bd
       0.057690717 0.065872565 -0.15890284 -0.048367966
0003f0 7e 27 8a 3d 84 79 5b 3d 3e 2a 07 bd 0e 40 a6 3d
       0.06745814 0.053582683 -0.03299927 0.08117686

lstm.weight_hh_l0 f4 [256, 64]
000000 f2 5f cf bb 7e e3 5c 3c 2d 54 db 3d c9 99 6f 3d
       -0.0063285762 0.013481973 0.10709415 0.05849627
000010 75 cc 1c bc 94 d2 8e 3d 66 85 a9 3c bd 56 0b 3d
       -0.009570231 0.06973758 0.020693492 0.034018267
000020 55 72 26 3d 13 2e 80 bc 20 16 ce 3c f6 50 2c 3c
       0.04063638 -0.01564697 0.025157034 0.0105173495
000030 5d 35 83 3c 9b 72 f4 bc 5f c6 24 3c 8d 9e e0 3d
       0.016016657 -0.029839804 0.010057061 0.10967741
000040 d6 99 af 3d b7 be f2 3d f0 15 55 3d 70 a3 2a 3d
       0.08574264 0.11852782 0.052022874 0.041659772
000050 4f 2e f5 bd 15 98 a4 3c dc 32 85 3c bd 95 91 3d
       -0.11971723 0.02009205 0.016259603 0.071086384
000060 6d 10 cd 3d 08 99 6a 3d 15 07 99 3d 6b ad 3c bb
       0.100128986 0.05727485 0.07472054 -0.0028789889
000070 88 79 f5 bd 9e 14 ee bd 90 dd db 3d c2 85 ad 3c
       -0.11986071 -0.11625026 0.10735619 0.021181945
000080 ce ca c5 bb 61 85 4d 3d 59 1a ef 3c 96 d4 43 bc
       -0.006036139 0.05017603 0.029187368 -0.01195254
000090 4e dc bb 3d 79 dc e4 3c 68 58 0c 3d d5 c1 ce bb
       0.09172879 0.02793716 0.034264 -0.0063097277
0000a0 42 74 95 3d 39 fe 97 bd 96 f9 f2 bd 48 1b 8a 3b
       0.07297565 -0.07421536 -0.11864011 0.004214678
0000b0 d5 93 d2 3d dc 09 f1 3b aa 00 bc bd 77 61 93 3d
       0.10282103 0.0073559117 -0.09179814 0.07196324
0000c0 3c 51 a0 bd 74 ce fb bc ee c4 93 3d 35 73 3f bd
       -0.07827994 -0.030738093 0.07215296 -0.04674073
0000d0 b8 9c 3d bd 75 6d e7 bc b2 b0 2e 3d d5 1b d1 bd
       -0.046292037 -0.028250435 0.04264898 -0.10210387
0000e0 10 75 b5 bc a9 95 a3 bc 45 02 60 bd d2 2a bf 3c
       -0.022150546 -0.019968824 -0.054689664 0.023335848
0000f0 b7 82 39 3d c2 b3 17 bd f8 51 4e 3c b5 6a be bd
       0.045290675 -0.037036665 0.012592785 -0.092976965
000100 76 93 a2 3a 5f 21 ef 3d ef 23 8f 3d 9f b3 6f bb
       0.0012403566 0.11676287 0.06989276 -0.0036575568
000110 dc d1 a4 bd 53 94 3a 3d 53 3f 50 bc 1f 14 39 bd
       -0.0804784 0.04555161 -0.01271041 -0.045185205
000120 c2 05 65 bd a0 bc f8 3c c5 6c 99 3a 50 7e 31 bc
       -0.055913694 0.03036338 0.001170539 -0.010833338
000130 1d 15 b9 bc 51 df 30 3c 07 61 b4 bc 16 91 55 bd
       -0.022593075 0.01079543 -0.022018922 -0.052140318
000140 b4 6e 04 bc 31 d5 1d 3d b3 a5 b8 3d d2 4f 75 bd
       -0.008083034 0.038533393 0.090159796 -0.059890576
000150 91 2a c7 3d 19 2a ef bc f1 aa 22 3d 95 a1 58 3c
       0.09724916 -0.029194878 0.039713804 0.013222118
000160 16 5c 57 ba 53 12 49 bd 0a 18 44 3d 2c 65 8a bc
       -0.0008215321 -0.04908974 0.047874488 -0.016893946
000170 3b 24 f4 bd 29 41 8b 3d 1f 17 e5 3c dc ca 36 bb
       -0.11920973 0.06799538 0.027965127 -0.002789191
000180 0b 97 bf bb e9 22 11 bd 95 5d bf bd 1b 4d f6 3c
       -0.005846863 -0.035433684 -0.09344021 0.030066064
000190 03 73 0a bd 3b 87 94 3d f3 d2 a3 bd a6 ca 72 bd
       -0.03380109 0.07252356 -0.0799922 -0.05927529
0001a0 cf 8e 52 3d 66 f0 30 bd b3 9a ad bd 5d e4 e5 bd
       0.051405724 -0.04319801 -0.08476772 -0.112251975
0001b0 4e 4d 98 bd f7 a6 86 bd c4 6f 96 bc 34 6d 54 3d
       -0.0743662 -0.06574815 -0.01836384 0.051861957
0001c0 58 f3 91 bc f4 7a 59 bd 55 2e 96 bc 7d 10 9b bb
       -0.01781623 -0.053095773 -0.01833264 -0.00473219
0001d0 45 51 78 3c 31 e3 10 bd b7 85 56 3c c8 25 a4 3c
       0.015156095 -0.035372917 0.013093404 0.020037547
0001e0 db 83 e7 3c 38 46 68 3d f1 c1 8d 3d d4 fe b8 3d
       0.028261116 0.05670759 0.06921757 0.090329796
0001f0 c0 db a4 ba 4b 51 f4 3d 29 61 2e 3d 10 be 0b bc
       -0.0012577698 0.11929568 0.042573128 -0.008529201
000200 11 74 8f 3c a1 f3 23 bd 36 b9 a3 3c db a4 cc 3d
       0.0175114 -0.040027265 0.019985776 0.09992381
000210 3a 8b 95 3d d1 ba d6 bc 70 59 be bd c1 94 02 bc
       0.07301946 -0.026212128 -0.092944026 -0.007970036
000220 f4 b3 3c bd 79 2b 26 3d ce d0 e0 3d e9 06 ce 3d
       -0.046070054 0.040568803 0.10977326 0.10059912
000230 e6 f2 0a bc 5e 2a 18 be 7e b6 5c bc a0 cf dd 3c
       -0.008480763 -0.14859912 -0.013471244 0.027076542
000240 aa 8a 36 bc 11 60 8f bd 48 cf 95 bd b0 22 6f 3c
       -0.0111414585 -0.07000745 -0.073149264 0.0145956725
000250 d4 23 1d 3d 4e ae 43 bd 98 3e 5a bd 14 85 58 bd
       0.038364246 -0.04777365 -0.05328235 -0.05286129
000260 a4 04 45 3d c3 1c cd 3d 5f 8d 42 bd fc c0 95 bd
       0.04810013 0.100152515 -0.047498103 -0.073121995
000270 55 9f 57 ba bd 60 a2 3c 48 df 53 3d 62 ef 18 3d
       -0.00082253414 0.019821519 0.05172661 0.03733767
000280 34 75 e8 bc 2e ba 34 bd ae 1f a1 3c fd b2 c2 bd
       -0.0283762 -0.044122867 0.019668426 -0.095067956
000290 f6 4c 4f bd cf b0 08 3d 2c 84 4c 3d 1b 04 85 3d
       -0.050610505 0.033371743 0.049930736 0.06494924
0002a0 b6 a4 e0 bd 3a 6c 32 3c bb eb d1 bd 79 8d 9a 3d
       -0.10968916 0.010890061 -0.1025004 0.07546515
0002b0 26 c2 26 bc 8e 15 b1 3d 73 fe 8b bd e1 4c a8 bd
       -0.0101781245 0.08646689 -0.06835642 -0.082177885
0002c0 18 18 9e 3c e4 8d 98 bd 9d a6 d9 bc dc 55 34 bd
       0.019298598 -0.074489385 -0.026568705 -0.044027194
0002d0 e2 c0 69 bc 74 b1 6a bd b7 18 b8 3b 52 14 8c 3d
       -0.014267178 -0.05729814 0.0056181806 0.06839813
0002e0 7d 74 33 bd 24 17 fa 3d 62 e6 72 3c df ec 68 3c
       -0.043812264 0.12211445 0.014825435 0.014216631
0002f0 53 8a 43 3d 6d 39 0d be 81 68 e3 3d 11 4d 75 3c
       0.047739338 -0.13791437 0.11103917 0.014971987
000300 35 2c d5 bd 2f 6e 22 3d a0 81 8b bc 6c e5 52 bd
       -0.104088224 0.03965586 -0.017029583 -0.051488325
000310 14 6f 32 3d 72 23 98 bb 29 ad 22 3d af 21 08 be
       0.043562964 -0.0046428973 0.03971592 -0.132941
000320 60 d5 7b 3d da a0 15 bd fb 0e 03 3d 0e 0a 7e 3c
       0.061482787 -0.036530353 0.03199671 0.015505327
000330 1e 6c 51 3d 0f cd 9c bb e2 23 7a 3d 6b 98 92 b9
       0.0511285 -0.004785187 0.061069377 -0.0002796085
000340 7b 88 f7 bc cf 90 2e bd 2f 72 56 bd 7b 57 47 3c
       -0.030216446 -0.04261857 -0.052354988 0.012166853
000350 3f d1 27 bd 0b 5e 99 bd 0a 56 c0 bc 16 c1 00 bc
       -0.040971037 -0.074886404 -0.023478527 -0.007858535
000360 30 03 cb bc 11 2d a0 bc f7 79 4e 3d f4 b1 e2 3d
       -0.024781793 -0.01955274 0.050409283 0.11069098
000370 0e b0 71 3c 46 4b 17 bd b1 9e 18 bd 6c 61 d1 bc
       0.014751447 -0.03693702 -0.037260715 -0.02555915
000380 4e a2 18 3d 7b 41 ef bc 2b 93 79 3d 0b e2 84 3d
       0.03726416 -0.029206028 0.060931366 0.06488427
000390 5e b2 7d 3c 53 47 0c 3d f1 59 7c bb f6 3c 45 3d
       0.015484421 0.034247708 -0.0038505758 0.04815384
0003a0 ab c2 c4 3b 28 ab cd bd ac e8 3f 3c 13 74 e4 b9
       0.0060046515 -0.10042411 0.011713188 -0.0004357403
0003b0 ef f3 74 bd 25 9c be bb 2e 26 25 3e 72 a5 7c 3b
       -0.059802946 -0.0058169537 0.16127846 0.0038550762
0003c0 d5 40 b1 3c f3 68 e3 bd d0 32 37 bd e4 ad 9b bd
       0.02163736 -0.11104002 -0.044726193 -0.076015264
0003d0 1c 72 87 bd e0 6d eb bc 6d bd 6a bc 37 3f f2 bd
       -0.066135615 -0.028738916 -0.014327389 -0.118284635
0003e0 64 26 8e bd 6b 56 46 bd 26 58 9b 3d 33 06 fd bc
       -0.06940916 -0.04842226 0.07585172 -0.030886745
0003f0 44 02 e0 3d d7 56 94 3d 4c e7 20 bd 19 a9 26 bd
       0.10937932 0.07243126 -0.039283082 -0.040688608

lstm.bias_ih_l0 f4 [256]
000000 d9 8d 1d 36 8e b2 2a 36 db 90 57 37 0c 93 6b 37
       2.347739e-06 2.5435907e-06 1.2848725e-05 1.40413285e-05
000010 f8 0c 9c 37 d5 18 2b 35 b9 0e 94 36 21 b2 45 37
       1.8602688e-05 6.37386e-07 4.4124577e-06 1.1783589e-05
000020 f5 1f 4f 37 cd 99 a9 32 af d4 3d 37 b3 d6 8c 36
       1.2345602e-05 1.974413e-08 1.1314797e-05 4.1973194e-06
000030 30 6b f7 35 4b d3 c3 35 72 e8 59 36 b3 db b5 35
       1.843413e-06 1.4590127e-06 3.247082e-06 1.3549492e-06
000040 60 59 07 37 c7 58 1e 37 5c a6 c3 b5 03 a6 03 37
       8.067436e-06 9.438204e-06 -1.4577049e-06 7.846861e-06
000050 1a f7 6f b6 a9 34 9a b4 0c 37 3b 36 18 6d 90 36
       -3.5757607e-06 -2.872305e-07 2.7897213e-06 4.3042346e-06
000060 c8 05 2c 35 9d b3 12 b5 dd 77 65 37 37 73 67 35
       6.4083406e-07 -5.465061e-07 1.36773715e-05 8.6221866e-07
000070 02 8d 1c 37 c4 e0 94 36 7d 71 11 37 ca ec 9c 37
       9.3311555e-06 4.43691e-06 8.669097e-06 1.8706913e-05
000080 ad 5f 2f 37 ea d4 70 37 dd ba 95 b5 e3 29 ac 35
       1.0453089e-05 1.4354688e-05 -1.115575e-06 1.2827189e-06
000090 69 0b 0d 37 fc b1 53 b6 38 d3 35 35 6c 39 26 36
       8.406912e-06 -3.154505e-06 6.773512e-07 2.4769352e-06
0000a0 c5 e7 d9 b5 d2 98 b8 35 e6 77 04 b5 9e a8 4b 36
       -1.6235214e-06 1.3753545e-06 -4.9348307e-07 3.0347505e-06
0000b0 6a 0d 92 37 8b 85 0a b6 79 6e b2 b4 12 2a a8 36
       1.7410803e-05 -2.0641335e-06 -3.3235463e-07 5.011688e-06
0000c0 67 86 87 36 ff 2d aa 37 01 5a 01 37 2c 6c 78 b4
       4.03896e-06 2.0286998e-05 7.709955e-06 -2.3136153e-07
0000d0 85 4e b2 37 a9 8f 74 b5 51 91 c2 36 b0 62 fd 36
       2.1255817e-05 -9.1106136e-07 5.7985676e-06 7.5514763e-06
0000e0 24 20 2a 33 c4 78 04 36 c2 79 cb 34 c0 01 e9 36
       3.961044e-08 1.9739828e-06 3.7900287e-07 6.944145e-06
0000f0 a6 c6 3e 36 31 1e 0e 37 9b 0e 9f 36 01 48 7c 36
       2.8427835e-06 8.470889e-06 4.7402696e-06 3.7592838e-06
000100 24 9d db 35 40 d4 8a 36 bb b6 68 37 d4 72 14 37
       1.6362505e-06 4.1374296e-06 1.3870823e-05 8.848223e-06
000110 ce 4c 00 38 ef 84 a7 b3 3d bf ac 36 1f 9d 39 37
       3.0589108e-05 -7.800724e-08 5.1482625e-06 1.1063442e-05
000120 5c f6 5e b5 46 46 8f 34 be e2 52 37 24 69 eb 35
       -8.3059945e-07 2.6686956e-07 1.2569768e-05 1.7539464e-06
000130 9d dd 9f b6 4a 18 ed b5 5a 4d 67 36 de f5 a7 33
       -4.7643684e-06 -1.7664945e-06 3.4466707e-06 7.8212665e-08
000140 ea 05 59 35 97 ef f7 36 62 aa a9 b5 94 ee d2 36
       8.0847406e-07 7.3890656e-06 -1.2641069e-06 6.286262e-06
000150 42 fd e7 b5 d1 f4 06 36 47 a1 49 36 31 a2 0a 35
       -1.7284549e-06 2.0110058e-06 3.004521e-06 5.1645026e-07
000160 e0 05 ab 35 b8 6b 3b 34 36 ec e5 36 40 d5 36 37
       1.2742203e-06 1.745492e-07 6.8522304e-06 1.08976965e-05
000170 55 e6 d5 36 bf f7 55 36 f9 38 be 36 3a 1a ae 37
       6.374709e-06 3.188368e-06 5.6690737e-06 2.0754629e-05
000180 f3 00 1c 37 75 0d 6a 37 d4 7e bf b4 4d d7 64 36
       9.298546e-06 1.395062e-05 -3.5668802e-07 3.409997e-06
000190 de 66 09 37 7a b1 83 b6 a7 f0 c7 34 09 f5 4f 36
       8.189787e-06 -3.924765e-06 3.7241736e-07 3.0988033e-06
0001a0 6e 49 87 b5 64 51 37 35 fc 32 d5 b4 c7 5d 47 b6
       -1.0079655e-06 6.829125e-07 -3.9711438e-07 -2.9707896e-06
0001b0 6d fa 8c 37 55 5a 30 37 4b db 48 35 42 63 97 36
       1.6805914e-05 1.051145e-05 7.482492e-07 4.511706e-06
0001c0 42 50 da 36 21 27 8b 36 41 73 8c 37 d3 61 02 36
       6.5062495e-06 4.147078e-06 1.674297e-05 1.942845e-06
0001d0 4d bc aa 37 cc 87 00 b4 51 5a a8 36 de 9e b3 36
       2.0353264e-05 -1.1970332e-07 5.0173044e-06 5.3531103e-06
0001e0 18 f5 19 b5 f3 da 62 36 4a 62 1a 34 17 cb a6 36
       -5.73536e-07 3.380407e-06 1.4378125e-07 4.9708283e-06
0001f0 75 c7 1f 37 80 ea be 36 00 9f b3 36 04 97 b8 35
       9.523578e-06 5.6897406e-06 5.3531257e-06 1.375302e-06
000200 c4 9f c1 ba f2 1a 12 3b 01 07 af bb d9 f8 8f bb
       -0.0014772345 0.0022293893 -0.005341411 -0.0043936786
000210 e3 ed 75 bb 69 19 4a 3a c2 0e 88 bb 87 19 b9 3b
       -0.0037525825 0.0007709475 -0.00415215 0.005648795
000220 6f a4 8b 3b 2a 49 81 3a 8d bc 91 bb 78 8a 84 3b
       0.0042615454 0.0009863724 -0.004447526 0.004044827
000230 9a cd bf 3a 96 8d 00 b9 ff ef 22 3b b7 84 b2 3a
       0.0014633418 -0.00012259776 0.0024862287 0.0013619874
000240 bc 42 58 3b 2c a9 87 bb cf cf 18 ba 21 b6 2d bb
       0.003299876 -0.00414004 -0.0005829306 -0.0026506262
000250 a5 18 ee ba 4e 6a d0 3a be 8d 3e bb ca fe 27 bb
       -0.0018165304 0.0015900822 -0.0029076184 -0.0025634044
000260 20 76 27 bb 65 be d5 b9 bc 64 91 3b 6b 74 4f bb
       -0.0025552586 -0.0004076838 0.0044370573 -0.0031655084
000270 45 06 8d bb 8e d2 7c bb 07 54 64 bb e6 17 bf 3b
       -0.004303726 -0.0038577649 -0.0034840123 0.0058317063
000280 93 29 99 bb e4 5b bd bb 6c fe 5d 3a 0d 23 ed 3a
       -0.0046741455 -0.0057787765 0.0008468393 0.0018092111
000290 25 6d 7a bb 7b c5 67 ba 78 ea 55 ba 81 12 38 3b
       -0.0038212028 -0.00088413776 -0.0008160244 0.00280872
0002a0 a8 17 c5 3a 97 b8 82 3a 40 35 86 39 de 88 9e ba
       0.0015036957 0.0009973225 0.00025598146 -0.0012095233
0002b0 9f 75 a7 bb dd a5 35 3b 27 7e 3f bb 77 20 54 bb
       -0.005110457 0.002771727 -0.002921948 -0.0032367983
0002c0 cc d4 fe ba 09 6e b6 3b d9 25 6f 3b fc fb 8c ba
       -0.001944208 0.0055673164 0.0036491065 -0.001075625
0002d0 77 e5 d7 3b 26 ca 66 3a 9e 4c 34 bb bd 57 eb 3a
       0.0065886336 0.0008803926 -0.0027511488 0.0017955225
0002e0 ef 46 f7 39 68 df e8 ba bd 00 e0 b9 85 ac 4c bb
       0.0004716436 -0.0017766776 -0.0004272516 -0.003123076
0002f0 27 00 13 bb b1 84 74 bb 88 35 37 3b 72 46 f5 ba
       -0.002243051 -0.0037310536 0.002795549 -0.0018713011
000300 5d 90 06 36 04 7c ac 36 46 df 7d 37 d0 7a 62 37
       2.0051586e-06 5.1404368e-06 1.513196e-05 1.3499244e-05
000310 64 51 23 38 09 10 cc 34 83 2a f7 36 ea fb 57 37
       3.893803e-05 3.8009628e-07 7.3661226e-06 1.2873652e-05
000320 45 dc 3c b5 cd fb 2e b4 f7 a7 93 37 f2 a8 98 36
       -7.035599e-07 -1.6296617e-07 1.760198e-05 4.549621e-06
000330 65 11 8f b6 ff 08 47 34 17 6a 94 36 ec ba ad 34
       -4.263757e-06 1.8536592e-07 4.423094e-06 3.2359765e-07
000340 77 2d cd 36 40 cd 1d 37 75 09 50 b6 11 d3 f9 36
       6.114769e-06 9.405718e-06 -3.099992e-06 7.4453496e-06
000350 d3 1e 3b b6 7a 52 00 36 8b 68 9d 36 97 02 d2 b2
       -2.7883113e-06 1.9121494e-06 4.691135e-06 -2.4448395e-08
000360 11 91 fa 35 f7 32 37 b4 00 a0 2b 37 8b 3f 3e 37
       1.8668671e-06 -1.7061744e-07 1.0229647e-05 1.1339677e-05
000370 71 3c 09 37 2f f2 9d 35 26 82 db 36 f5 11 d4 37
       8.179909e-06 1.1767896e-06 6.54186e-06 2.5280731e-05
000380 aa fd 3d 37 d3 0d 8c 37 da 8e 05 b5 89 82 67 36
       1.1324339e-05 1.6695738e-05 -4.975424e-07 3.4497664e-06
000390 6d ce 12 37 cb 87 cb b6 af 9e 2e 35 ac a6 8f 36
       8.75034e-06 -6.06568e-06 6.5050966e-07 4.2811353e-06
0003a0 1f 7a 1b b6 ec 1b 2c 35 86 79 2f b5 15 2d 2f b6
       -2.3167884e-06 6.4115625e-07 -6.536942e-07 -2.6103273e-06
0003b0 4e fd a7 37 5b 5b 01 37 98 c7 25 b5 75 e4 ca 36
       2.0025906e-05 7.7102695e-06 -6.1757737e-07 6.046665e-06
0003c0 53 68 f7 36 1a 63 b2 36 57 73 ad 37 52 b3 eb 35
       7.3733186e-06 5.3163503e-06 2.0676916e-05 1.7561053e-06
0003d0 cf 09 c9 37 90 3b 8f b4 fc 29 d9 36 4d 7c f7 36
       2.3965635e-05 -2.6679163e-07 6.4719916e-06 7.375644e-06
0003e0 d8 31 34 b5 4c 25 76 36 66 7f b5 33 04 83 77 36
       -6.712776e-07 3.6678566e-06 8.451643e-08 3.688213e-06
0003f0 e2 a8 45 37 e6 82 f6 36 eb 37 cb 36 28 02 2f 36
       1.1781436e-05 7.34661e-06 6.056381e-06 2.6078287e-06

lstm.bias_hh_l0 f4 [256]
000000 d9 8d 1d 36 8e b2 2a 36 db 90 57 37 0c 93 6b 37
       2.347739e-06 2.5435907e-06 1.2848725e-05 1.40413285e-05
000010 f8 0c 9c 37 d5 18 2b 35 b9 0e 94 36 21 b2 45 37
       1.8602688e-05 6.37386e-07 4.4124577e-06 1.1783589e-05
000020 f5 1f 4f 37 cd 99 a9 32 af d4 3d 37 b3 d6 8c 36
       1.2345602e-05 1.974413e-08 1.1314797e-05 4.1973194e-06
000030 30 6b f7 35 4b d3 c3 35 72 e8 59 36 b3 db b5 35
       1.843413e-06 1.4590127e-06 3.247082e-06 1.3549492e-06
000040 60 59 07 37 c7 58 1e 37 5c a6 c3 b5 03 a6 03 37
       8.067436e-06 9.438204e-06 -1.4577049e-06 7.846861e-06
000050 1a f7 6f b6 a9 34 9a b4 0c 37 3b 36 18 6d 90 36
       -3.5757607e-06 -2.872305e-07 2.7897213e-06 4.3042346e-06
000060 c8 05 2c 35 9d b3 12 b5 dd 77 65 37 37 73 67 35
       6.4083406e-07 -5.465061e-07 1.36773715e-05 8.6221866e-07
000070 02 8d 1c 37 c4 e0 94 36 7d 71 11 37 ca ec 9c 37
       9.3311555e-06 4.43691e-06 8.669097e-06 1.8706913e-05
000080 ad 5f 2f 37 ea d4 70 37 dd ba 95 b5 e3 29 ac 35
       1.0453089e-05 1.4354688e-05 -1.115575e-06 1.2827189e-06
000090 69 0b 0d 37 fc b1 53 b6 38 d3 35 35 6c 39 26 36
       8.406912e-06 -3.154505e-06 6.773512e-07 2.4769352e-06
0000a0 c5 e7 d9 b5 d2 98 b8 35 e6 77 04 b5 9e a8 4b 36
       -1.6235214e-06 1.3753545e-06 -4.9348307e-07 3.0347505e-06
0000b0 6a 0d 92 37 8b 85 0a b6 79 6e b2 b4 12 2a a8 36
       1.7410803e-05 -2.0641335e-06 -3.3235463e-07 5.011688e-06
0000c0 67 86 87 36 ff 2d aa 37 01 5a 01 37 2c 6c 78 b4
       4.03896e-06 2.0286998e-05 7.709955e-06 -2.3136153e-07
0000d0 85 4e b2 37 a9 8f 74 b5 51 91 c2 36 b0 62 fd 36
       2.1255817e-05 -9.1106136e-07 5.7985676e-06 7.5514763e-06
0000e0 24 20 2a 33 c4 78 04 36 c2 79 cb 34 c0 01 e9 36
       3.961044e-08 1.9739828e-06 3.7900287e-07 6.944145e-06
0000f0 a6 c6 3e 36 31 1e 0e 37 9b 0e 9f 36 01 48 7c 36
       2.8427835e-06 8.470889e-06 4.7402696e-06 3.7592838e-06
000100 24 9d db 35 40 d4 8a 36 bb b6 68 37 d4 72 14 37
       1.6362505e-06 4.1374296e-06 1.3870823e-05 8.848223e-06
000110 ce 4c 00 38 ef 84 a7 b3 3d bf ac 36 1f 9d 39 37
       3.0589108e-05 -7.800724e-08 5.1482625e-06 1.1063442e-05
000120 5c f6 5e b5 46 46 8f 34 be e2 52 37 24 69 eb 35
       -8.3059945e-07 2.6686956e-07 1.2569768e-05 1.7539464e-06
000130 9d dd 9f b6 4a 18 ed b5 5a 4d 67 36 de f5 a7 33
       -4.7643684e-06 -1.7664945e-06 3.4466707e-06 7.8212665e-08
000140 ea 05 59 35 97 ef f7 36 62 aa a9 b5 94 ee d2 36
       8.0847406e-07 7.3890656e-06 -1.2641069e-06 6.286262e-06
000150 42 fd e7 b5 d1 f4 06 36 47 a1 49 36 31 a2 0a 35
       -1.7284549e-06 2.0110058e-06 3.004521e-06 5.1645026e-07
000160 e0 05 ab 35 b8 6b 3b 34 36 ec e5 36 40 d5 36 37
       1.2742203e-06 1.745492e-07 6.8522304e-06 1.08976965e-05
000170 55 e6 d5 36 bf f7 55 36 f9 38 be 36 3a 1a ae 37
       6.374709e-06 3.188368e-06 5.6690737e-06 2.0754629e-05
000180 f3 00 1c 37 75 0d 6a 37 d4 7e bf b4 4d d7 64 36
       9.298546e-06 1.395062e-05 -3.5668802e-07 3.409997e-06
000190 de 66 09 37 7a b1 83 b6 a7 f0 c7 34 09 f5 4f 36
       8.189787e-06 -3.924765e-06 3.7241736e-07 3.0988033e-06
0001a0 6e 49 87 b5 64 51 37 35 fc 32 d5 b4 c7 5d 47 b6
       -1.0079655e-06 6.829125e-07 -3.9711438e-07 -2.9707896e-06
0001b0 6d fa 8c 37 55 5a 30 37 4b db 48 35 42 63 97 36
       1.6805914e-05 1.051145e-05 7.482492e-07 4.511706e-06
0001c0 42 50 da 36 21 27 8b 36 41 73 8c 37 d3 61 02 36
       6.5062495e-06 4.147078e-06 1.674297e-05 1.942845e-06
0001d0 4d bc aa 37 cc 87 00 b4 51 5a a8 36 de 9e b3 36
       2.0353264e-05 -1.1970332e-07 5.0173044e-06 5.3531103e-06
0001e0 18 f5 19 b5 f3 da 62 36 4a 62 1a 34 17 cb a6 36
       -5.73536e-07 3.380407e-06 1.4378125e-07 4.9708283e-06
0001f0 75 c7 1f 37 80 ea be 36 00 9f b3 36 04 97 b8 35
       9.523578e-06 5.6897406e-06 5.3531257e-06 1.375302e-06
000200 c4 9f c1 ba f2 1a 12 3b 01 07 af bb d9 f8 8f bb
       -0.0014772345 0.0022293893 -0.005341411 -0.0043936786
000210 e3 ed 75 bb 69 19 4a 3a c2 0e 88 bb 87 19 b9 3b
       -0.0037525825 0.0007709475 -0.00415215 0.005648795
000220 6f a4 8b 3b 2a 49 81 3a 8d bc 91 bb 78 8a 84 3b
       0.0042615454 0.0009863724 -0.004447526 0.004044827
000230 9a cd bf 3a 96 8d 00 b9 ff ef 22 3b b7 84 b2 3a
       0.0014633418 -0.00012259776 0.0024862287 0.0013619874
000240 bc 42 58 3b 2c a9 87 bb cf cf 18 ba 21 b6 2d bb
       0.003299876 -0.00414004 -0.0005829306 -0.0026506262
000250 a5 18 ee ba 4e 6a d0 3a be 8d 3e bb ca fe 27 bb
       -0.0018165304 0.0015900822 -0.0029076184 -0.0025634044
000260 20 76 27 bb 65 be d5 b9 bc 64 91 3b 6b 74 4f bb
       -0.0025552586 -0.0004076838 0.0044370573 -0.0031655084
000270 45 06 8d bb 8e d2 7c bb 07 54 64 bb e6 17 bf 3b
       -0.004303726 -0.0038577649 -0.0034840123 0.0058317063
000280 93 29 99 bb e4 5b bd bb 6c fe 5d 3a 0d 23 ed 3a
       -0.0046741455 -0.0057787765 0.0008468393 0.0018092111
000290 25 6d 7a bb 7b c5 67 ba 78 ea 55 ba 81 12 38 3b
       -0.0038212028 -0.00088413776 -0.0008160244 0.00280872
0002a0 a8 17 c5 3a 97 b8 82 3a 40 35 86 39 de 88 9e ba
       0.0015036957 0.0009973225 0.00025598146 -0.0012095233
0002b0 9f 75 a7 bb dd a5 35 3b 27 7e 3f bb 77 20 54 bb
       -0.005110457 0.002771727 -0.002921948 -0.0032367983
0002c0 cc d4 fe ba 09 6e b6 3b d9 25 6f 3b fc fb 8c ba
       -0.001944208 0.0055673164 0.0036491065 -0.001075625
0002d0 77 e5 d7 3b 26 ca 66 3a 9e 4c 34 bb bd 57 eb 3a
       0.0065886336 0.0008803926 -0.0027511488 0.0017955225
0002e0 ef 46 f7 39 68 df e8 ba bd 00 e0 b9 85 ac 4c bb
       0.0004716436 -0.0017766776 -0.0004272516 -0.003123076
0002f0 27 00 13 bb b1 84 74 bb 88 35 37 3b 72 46 f5 ba
       -0.002243051 -0.0037310536 0.002795549 -0.0018713011
000300 5d 90 06 36 04 7c ac 36 46 df 7d 37 d0 7a 62 37
       2.0051586e-06 5.1404368e-06 1.513196e-05 1.3499244e-05
000310 64 51 23 38 09 10 cc 34 83 2a f7 36 ea fb 57 37
       3.893803e-05 3.8009628e-07 7.3661226e-06 1.2873652e-05
000320 45 dc 3c b5 cd fb 2e b4 f7 a7 93 37 f2 a8 98 36
       -7.035599e-07 -1.6296617e-07 1.760198e-05 4.549621e-06
000330 65 11 8f b6 ff 08 47 34 17 6a 94 36 ec ba ad 34
       -4.263757e-06 1.8536592e-07 4.423094e-06 3.2359765e-07
000340 77 2d cd 36 40 cd 1d 37 75 09 50 b6 11 d3 f9 36
       6.114769e-06 9.405718e-06 -3.099992e-06 7.4453496e-06
000350 d3 1e 3b b6 7a 52 00 36 8b 68 9d 36 97 02 d2 b2
       -2.7883113e-06 1.9121494e-06 4.691135e-06 -2.4448395e-08
000360 11 91 fa 35 f7 32 37 b4 00 a0 2b 37 8b 3f 3e 37
       1.8668671e-06 -1.7061744e-07 1.0229647e-05 1.1339677e-05
000370 71 3c 09 37 2f f2 9d 35 26 82 db 36 f5 11 d4 37
       8.179909e-06 1.1767896e-06 6.54186e-06 2.5280731e-05
000380 aa fd 3d 37 d3 0d 8c 37 da 8e 05 b5 89 82 67 36
       1.1324339e-05 1.6695738e-05 -4.975424e-07 3.4497664e-06
000390 6d ce 12 37 cb 87 cb b6 af 9e 2e 35 ac a6 8f 36
       8.75034e-06 -6.06568e-06 6.5050966e-07 4.2811353e-06
0003a0 1f 7a 1b b6 ec 1b 2c 35 86 79 2f b5 15 2d 2f b6
       -2.3167884e-06 6.4115625e-07 -6.536942e-07 -2.6103273e-06
0003b0 4e fd a7 37 5b 5b 01 37 98 c7 25 b5 75 e4 ca 36
       2.0025906e-05 7.7102695e-06 -6.1757737e-07 6.046665e-06
0003c0 53 68 f7 36 1a 63 b2 36 57 73 ad 37 52 b3 eb 35
       7.3733186e-06 5.3163503e-06 2.0676916e-05 1.7561053e-06
0003d0 cf 09 c9 37 90 3b 8f b4 fc 29 d9 36 4d 7c f7 36
       2.3965635e-05 -2.6679163e-07 6.4719916e-06 7.375644e-06
0003e0 d8 31 34 b5 4c 25 76 36 66 7f b5 33 04 83 77 36
       -6.712776e-07 3.6678566e-06 8.451643e-08 3.688213e-06
0003f0 e2 a8 45 37 e6 82 f6 36 eb 37 cb 36 28 02 2f 36
       1.1781436e-05 7.34661e-06 6.056381e-06 2.6078287e-06

lstm.weight_ih_l0_reverse f4 [256, 5]
000000 1c 7c d0 bc 8a 5b 03 bd a9 34 af bd f0 ce e8 bb
       -0.025449805 -0.03206972 -0.08554966 -0.007104747
000010 73 76 69 3c 2e 49 af bd 35 73 5b 3d 93 1b 6d bd
       0.014249432 -0.0855888 0.053576667 -0.057887625
000020 30 0d cf 3b bb 70 a9 bd e4 4a 79 3d fb b9 64 bc
       0.0063187107 -0.08273455 0.060862437 -0.013960357
000030 88 2c 64 bd 5d 7d ac bc a4 1a f3 bc 26 e1 c1 3d
       -0.05570653 -0.021055872 -0.02967579 0.09466772
000040 16 9c 9d bc 02 f5 a7 bd 83 93 a4 3d b4 05 60 bc
       -0.019239467 -0.082010284 0.08035948 -0.013673235
000050 33 8f 8a 3c 0d d7 67 bd 36 db 89 bc d1 3c 98 3d
       0.016913986 -0.056601573 -0.01682816 0.07433475
000060 a5 44 8d 3c 2b 2b 38 3d 2c 00 5d bc 72 6b 04 be
       0.017244646 0.044963043 -0.0134888105 -0.12931612
000070 55 a4 14 3c 90 f5 46 bd 7a 34 f1 bb 63 f8 b2 3d
       0.009072383 -0.04857403 -0.007360992 0.08738782
000080 7e 45 c3 bd 04 87 3e 3c d4 cd a4 3c df 8f df bc
       -0.09534739 0.01162887 0.020117678 -0.027290283
000090 1b 46 c2 bd ca 6f b6 3d 40 02 75 3d cc 85 d5 3d
       -0.09486028 0.08908041 0.0598166 0.1042591
0000a0 69 88 9c 3d a4 d0 3b 3d a6 2f 60 bc 41 22 4a 3d
       0.07643206 0.045853272 -0.013683235 0.049349073
0000b0 30 37 1c 3e b0 8c f8 3d 72 60 89 bd e7 6e 8c bc
       0.15255427 0.12136209 -0.067078486 -0.017142726
0000c0 ff 7c ef 3c 17 c8 52 3d 31 5a 04 be c6 2f 8e 3b
       0.029234407 0.05146035 -0.1292503 0.004339191
0000d0 c8 69 7f 3d 8f 9b e4 bd 0d 46 b6 3c 3e 75 a1 3d
       0.06235674 -0.11162483 0.0222502 0.0788369
0000e0 5a ba a4 ba 3e 36 32 3d 91 e1 ec 3d bb 7b be bd
       -0.0012567744 0.04350876 0.11566461 -0.093009435
0000f0 89 90 37 bd f7 89 1b 3e 35 3e 3e 3d 30 1d 3b bc
       -0.044815574 0.15189348 0.046446044 -0.011420533
000100 c3 9b 1b bd 06 9f cb 3c 5b bb 1d 3e 2c e5 63 ba
       -0.037990343 0.024856102 0.15403502 -0.0008693512
000110 79 e4 70 bd e2 18 53 bd e8 b6 a3 3c ca 35 36 bd
       -0.05881164 -0.051537402 0.019984677 -0.04448489
000120 f9 e6 c2 3c f6 20 2a bc 3d c8 a7 3a 9c 7c 0b 3d
       0.023791777 -0.010383835 0.0012800765 0.034054384
000130 fe 86 99 3b 97 0a 0f 3e bc 24 6e 3c c5 1d be 3b
       0.004685282 0.13968883 0.014535125 0.0058018886
000140 7e 28 48 3d 1a f8 ea bd 72 5a c5 bd d2 eb 6d 3d
       0.04886674 -0.11473103 -0.09636392 0.058086224
000150 4b f3 8b 3c 88 bf bb 3c 2e c4 98 3b 27 88 4e 3c
       0.017083785 0.022918478 0.0046620583 0.012605703
000160 cd f2 ae bd be 4e 07 3d 19 af 2f bd 02 26 85 3d
       -0.08542404 0.03303408 -0.042891596 0.0650139
000170 38 5d b9 bb 53 1c b4 bc 9e d5 32 bc ae f8 04 bd
       -0.0056568645 -0.021986162 -0.010915188 -0.032463722
000180 fe ea fa bc a8 a6 1e 3e e9 d6 af bd f4 35 9c 3d
       -0.030629631 0.15493262 -0.08585913 0.07627478
000190 41 04 68 bd d4 b5 5d 3d ce 53 6e 3c b6 6e ba 3c
       -0.05664468 0.054128483 0.014546348 0.02275787
0001a0 66 b7 e1 bd ca e9 cc 3c 5f f6 cd 3d 64 31 51 bc
       -0.110213086 0.025013823 0.10056757 -0.012768123
0001b0 0c b0 57 3d 2b 6d ad 3d 5a 57 24 3b 20 0e e2 bc
       0.052658126 0.08468088 0.002507648 -0.027594626
0001c0 5a 96 9f 3d 67 6f 00 bc 81 91 79 3d 6a c3 d6 3c
       0.07792349 -0.00783906 0.06092978 0.026216228
0001d0 c2 55 ae bb fb b3 8c 3c 0f 55 7b bc 6c c2 19 bd
       -0.0053202817 0.017175665 -0.015340104 -0.03753893
0001e0 27 6a 04 bd 19 0d 92 bd eb cf cb 3c ec 1d 17 3d
       -0.032327797 -0.071314044 0.024879416 0.03689377
0001f0 6d c9 d6 3d 9e e3 c7 3c 3f bd 2e bd 02 87 14 3d
       0.10487638 0.024400529 -0.042660948 0.036261566
000200 62 7e 23 3d 5d 56 02 be a9 ef 13 bd d7 8e c1 3d
       0.03991545 -0.12728257 -0.03611723 0.09451073
000210 ea 08 ca 3c 91 0e 8a 3c 6f b1 29 bd 2b 1e 18 3d
       0.024662454 0.016852649 -0.04142898 0.037138145
000220 2f 34 06 3d 05 22 dc 3d 10 9c 53 3d a8 4f 9f 3d
       0.03276461 0.10748676 0.051662505 0.07778865
000230 50 ae a0 3c 69 c7 9b bd b8 51 52 bd 5d be b8 bc
       0.019614369 -0.07606394 -0.051347464 -0.02255171
000240 ee a8 34 bd 17 1a 74 3b d5 8c a0 bc 66 10 ef bc
       -0.044106416 0.0037246996 -0.019598404 -0.029182624
000250 84 75 2c bc e1 4c b9 3c 16 f4 85 bd 10 29 a7 3c
       -0.010526065 0.022619667 -0.06540696 0.020405322
000260 b4 7d 9d 3c 75 c5 85 bc b1 73 92 bc 96 0b 19 3d
       0.019224979 -0.016329506 -0.017877432 0.037364565
000270 01 58 bc bd 1b 1b 70 bb bb d0 a4 3d 75 a1 67 bd
       -0.09196473 -0.003663725 0.08047625 -0.05655046
000280 fc 13 90 bd 86 2d 28 bd 4c 65 b4 bc 98 72 92 bc
       -0.07035062 -0.04105904 -0.022020958 -0.017876908
000290 97 6a 88 bd 5d 09 1b 3e 3a 75 ae bd 69 83 1a 3d
       -0.066609554 0.1514029 -0.08518453 0.03772298
0002a0 d9 6d 6c bc ef 46 4a 3d c7 0d a4 3b 4e f2 89 bd
       -0.014430487 0.049384054 0.005006525 -0.06735669
0002b0 00 c2 26 bb 98 47 2b bd 31 90 77 bc 81 62 54 3d
       -0.0025445223 -0.041816324 -0.0151100615 0.051851753
0002c0 30 ff cf ba 2f e2 59 3d 29 bc d1 bc bd e0 94 3c
       -0.0015868898 0.05319422 -0.025602417 0.01817357
0002d0 62 9d c7 bd 43 ba 8a bd b5 6e 3c 3d 94 2d 00 bd
       -0.09746815 -0.06773808 0.046004016 -0.031293467
0002e0 4b da 15 bd b8 41 e1 bc b3 12 aa 3c ac a6 29 bd
       -0.036585134 -0.027497157 0.02076087 -0.041418716
0002f0 e8 59 ea 3c 68 7c 89 bd 6f 9d 8e 3d a8 f6 41 bd
       0.028607324 -0.06713182 0.06963622 -0.04735437
000300 df 83 12 3c 2f ec 42 bd 61 4b 49 bd 55 32 c5 bd
       0.008942573 -0.047588523 -0.049144153 -0.09628741
000310 ce 15 9d 3d a1 8a a0 bd d8 d9 68 3c de 28 ba 3d
       0.076701745 -0.07838941 0.014212094 0.09089826
000320 0d 35 67 bd ee 67 18 bd 3a 5c b6 3c f7 4f 8f bd
       -0.056447078 -0.03720849 0.022260774 -0.06997674
000330 9b c1 18 3d ed 57 89 3b 28 4c b9 3d 22 04 85 bd
       0.03729401 0.00419139 0.09047729 -0.06494929
000340 23 99 86 3c be 99 85 3d 92 1c da 3b 33 52 a4 3d
       0.016430443 0.065234646 0.006656238 0.08023491
000350 67 8e 0d 3d 04 49 35 3c af 3a 65 bc 34 57 09 3c
       0.034559634 0.011064772 -0.013991042 0.008382607
000360 cf 3e 09 3d ac fd 64 3b a7 38 da 3d e6 06 0d 3d
       0.033507165 0.003494124 0.10655337 0.034430407
000370 40 46 5b 3d 4d f7 93 3d a5 af 04 3d 30 3a ea bd
       0.053533792 0.07224903 0.03239407 -0.1143688
000380 09 1f e1 bb c0 3a 89 bd 31 15 be b9 80 64 f9 bc
       -0.0068701548 -0.06700659 -0.00036255413 -0.03044343
000390 f3 9c 0b bd cc 08 6c bd 06 79 af bd 85 a8 18 3c
       -0.034085225 -0.057625577 -0.08568005 0.009317522
0003a0 fe e7 b9 3d 71 57 c9 3d 2a 1c 99 bd fd 36 89 3b
       0.09077452 0.09831131 -0.07476075 0.0041874633
0003b0 9c cf b3 3d b8 7d 21 ba eb a8 39 b9 19 6a 28 bd
       0.08779833 -0.0006160396 -0.00017705902 -0.041116808
0003c0 37 f7 84 bd 18 2d 9d bd fd dc 5a 3d 62 6b 50 bd
       -0.06492465 -0.076746166 0.053433407 -0.05088366
0003d0 5e c0 bc bd 02 44 d0 bd 0e 2f 40 3d f8 fa 19 bd
       -0.09216379 -0.101692215 0.046919875 -0.037592858
0003e0 08 d7 00 3e 0f b8 c7 bc 03 a2 97 3d a5 50 dd bd
       0.12582028 -0.024379758 0.07403948 -0.10806397
0003f0 de e2 1e 3d 51 2b c0 3a 74 a4 72 3d e1 88 27 bd
       0.038790576 0.0014661347 0.059238866 -0.040902022

lstm.weight_hh_l0_reverse f4 [256, 64]
000000 90 f8 ea 3b 69 d3 b9 3d 92 7a a2 3c 09 65 83 bd
       0.0071707442 0.090735264 0.019833837 -0.06415755
000010 8b f8 69 bc b6 17 8a 3c b8 a3 6b 3c 55 00 de bd
       -0.014280449 0.01685701 0.014382295 -0.10839907
000020 34 0a d1 bd b0 0b 62 bd d0 5c b5 bb 78 de 29 bd
       -0.10207024 -0.055186927 -0.0055347458 -0.04147193
000030 cb e9 17 3d cf df 4c ba 74 02 1b 3b 90 e1 24 bd
       0.037088197 -0.00078153325 0.0023652585 -0.040254176
000040 21 a0 c1 bd bd 57 6d 3d 2a 28 a0 3c 03 5f bd 3c
       -0.0945437 0.057945002 0.019550402 0.023116594
000050 75 91 81 bd f9 24 d6 bd e4 13 0a bd cc 96 97 bd
       -0.06326572 -0.10456271 -0.033710375 -0.07401809
000060 77 c8 11 3d 4f 21 31 3d 6a 70 da bd 62 78 9f 3c
       0.03559157 0.043244656 -0.106659725 0.019466583
000070 e9 11 40 3c 27 91 5b bd a0 26 06 3d 28 01 f1 bb
       0.01172302 -0.053605225 0.03275168 -0.007354874
000080 74 ee ed 3c 2f e7 81 3d 90 83 03 bd a9 b0 de bd
       0.029044367 0.06342923 -0.03210789 -0.10873539
000090 b6 e0 8c 3c 5e 2a 6a bd 6e 0b e6 3c 3c 34 ba 3d
       0.017196994 -0.05716931 0.028081622 0.09091994
0000a0 93 85 4a bd ac 73 15 bd c1 b7 39 3d 95 f9 61 bd
       -0.049443793 -0.036487266 0.045341257 -0.05516966
0000b0 6f 4a 35 3d 3c d1 89 3d 0d 4d 5c 3c c0 6b 9c 3d
       0.04426044 0.067293614 0.013446105 0.07637739
0000c0 47 10 01 3e 0c 42 71 bd 53 ca 37 bd 7a ae 9b bd
       0.12603866 -0.058900878 -0.044870686 -0.07601638
0000d0 a5 f0 95 3d 1b 1b 6e bd 18 2c eb bc 76 aa 69 bc
       0.0732129 -0.05813132 -0.028707549 -0.014261832
0000e0 3a 5b 89 bc 92 d1 d0 bd eb d0 ea 3d 29 f2 1d bd
       -0.016767133 -0.10196222 0.11465629 -0.03856102
0000f0 f1 84 8b bc 71 26 d6 3b d4 97 c6 3d ca 94 d9 3c
       -0.017031165 0.0065353443 0.09696928 0.026560206
000100 cd e7 64 bd c4 4b 91 bb 1b 42 d1 3d a5 13 ce 3d
       -0.055885125 -0.004434081 0.10217687 0.10062341
000110 b4 4b 1a 3c cc f3 25 3d 3d 99 d2 bb e6 66 01 3e
       0.009417463 0.040515706 -0.006426959 0.12636909
000120 33 07 09 3d a5 4c c3 bd 46 53 70 bc 3c 7b 31 3d
       0.03345413 -0.09536103 -0.014668291 0.043330416
000130 19 72 02 be 6a e8 8f bd 02 a4 3c bd 90 4d 02 3d
       -0.12738837 -0.07026751 -0.046054848 0.03181225
000140 e7 66 9c 3c d2 b2 3d bc 08 0c b6 bd 8e 43 f0 bc
       0.019092036 -0.011578279 -0.088890135 -0.029329088
000150 b7 f0 0a 3c 00 7a 12 3a 3f 02 7d 3c 69 ee 07 3d
       0.008480242 0.00055876374 0.01544243 0.03318635
000160 4d 82 38 3d 9d 40 e6 3b d8 ed 82 bd ad 0c 96 3d
       0.04504614 0.0070267455 -0.06393021 0.073266365
000170 65 1c 6c bd c7 89 ad 3c 88 70 82 bd ad b9 ad 3a
       -0.057644267 0.021183861 -0.0636912 0.0013254188
000180 25 1d 5f bb 7e 9e 89 3d 01 39 8d 3d 0b 78 bf bd
       -0.003404447 0.06719683 0.06895638 -0.09349068
000190 0e ac 21 bd ed 9e 8d bd 05 15 1b bc 8a 20 e6 bb
       -0.039470725 -0.06915078 -0.009465461 -0.007022922
0001a0 47 8c 94 bb f1 16 27 3d 6c ec bb 3d ac 0e 92 3c
       -0.004533324 0.040793363 0.09175953 0.017829262
0001b0 4f d2 ea 3a a3 2b ca bd 83 31 71 3d e9 ec dd bd
       0.001791546 -0.09871604 0.05888511 -0.10836203
0001c0 80 f0 90 bc df 26 06 bd 65 00 d1 3c ed 06 da bc
       -0.017692804 -0.032751914 0.025512883 -0.02661463
0001d0 b8 d5 36 3d 0d 79 0d 3c 98 57 c3 bd bd dd 1e 3d
       0.04463741 0.008634818 -0.095381916 0.038785685
0001e0 c8 a8 9d bc bc 14 29 3d e4 15 1d 3e bb 7c 91 bd
       -0.01924552 0.04127954 0.15340382 -0.071038686
0001f0 1a 40 38 bd 06 f4 bb bc 0a cd fd 3c c6 df 2b bc
       -0.044983007 -0.022943508 0.03098156 -0.010490363
000200 f7 18 61 3d f2 9c 03 3d 8a 77 69 bd c6 be 76 3c
       0.05495545 0.032132097 -0.056998767 0.015060132
000210 42 22 d5 3d 0c 2e 76 bc 3c 29 54 bc 1b b4 72 3d
       0.10406925 -0.015025627 -0.012949284 0.059253793
000220 b5 95 c2 3b 41 ab 8f 3b 14 35 2f 3e d0 ce c9 3c
       0.0059382566 0.0043844287 0.17110091 0.024634749
000230 36 9b af bd c6 b0 b3 bb 53 bc c8 bc 39 4d 9b 3d
       -0.08574526 -0.0054837195 -0.024503862 0.075830884
000240 3a f3 10 be ff 1a 1b bb 3e e8 26 bd 7f 4d ce 3c
       -0.14155284 -0.0023667214 -0.040748827 0.025183437
000250 23 01 91 bd e2 30 a3 3d c4 e8 95 3c 05 0a ac bd
       -0.07080295 0.07968308 0.018299468 -0.084003486
000260 e5 0c 9e bd 9b 46 20 bd f8 45 70 3d 1b 9e 09 39
       -0.07717303 -0.039129835 0.058660477 0.00013124237
000270 30 54 4b bd 3c f4 62 3d ca b4 ae bc c0 3c 53 bd
       -0.049640834 0.0554087 -0.021326441 -0.051571608
000280 93 09 11 bc f2 ed 69 bd db 71 5b 3d 75 90 41 bd
       -0.00885238 -0.057111688 0.053575378 -0.047256906
000290 cf f2 3e 3c 61 3d 0e bd 12 18 f5 3b 24 80 91 bc
       0.01165457 -0.034726504 0.007479676 -0.017761298
0002a0 bd bd 94 3d 69 95 14 3c 3d 1d e0 3c e9 66 90 3d
       0.07262752 0.009068825 0.027357692 0.070508786
0002b0 47 ae 73 bc df 85 38 3d b8 d5 4f bd 99 54 8d 3d
       -0.014873094 0.045049544 -0.050740927 0.06900901
0002c0 80 07 10 3d fc bf 8f ba 2f b9 b5 bd ff eb 45 bd
       0.035163403 -0.001096725 -0.088732116 -0.048320767
0002d0 63 25 0f bd 28 0a d8 3d f1 77 9f 3d 88 b9 be 3c
       -0.034947764 0.10548812 0.07786549 0.023281828
0002e0 e7 8a 50 bd 96 4d a8 3d 3e 96 4a 3d 2f 65 18 bd
       -0.050913718 0.08217923 0.04945969 -0.03720587
0002f0 eb 13 b7 bb c0 ab a0 bc 2d 54 56 3d 00 ba 6a bd
       -0.005587091 -0.019613147 0.05232637 -0.05730629
000300 55 2d 0a bd 46 5f c1 bc fb d3 0b 3d 52 05 78 bc
       -0.03373464 -0.023605 0.034137707 -0.015137987
000310 da 0d 42 bd 0e ad 8e 3d b1 28 9d 3d 1f e5 28 bd
       -0.04737649 0.06966601 0.07673777 -0.041234132
000320 bb c3 88 bd 00 b0 ab 3c 34 ab 7e 3c 74 a4 0c 3d
       -0.066779576 0.020957947 0.015543748 0.034336522
000330 ea 97 1e bc 06 43 16 be 27 61 21 3c 57 3e a4 3c
       -0.009679774 -0.14674005 0.009849823 0.020049257
000340 fa ee 03 be df 80 9e 3c 2a f6 cc bc 26 d3 81 3d
       -0.12884131 0.01934856 -0.025019724 0.063391015
000350 30 3a 81 3d bc e5 9a 3d 36 c5 bc bc f0 ae 92 3b
       0.063099265 0.075633496 -0.023043256 0.0044764206
000360 ca 8a f7 3b 78 79 27 3a 5d cf af bd bb f7 90 3d
       0.0075543867 0.00063886447 -0.08584473 0.07078501
000370 47 24 1f 3d 3f 11 74 3b e8 6e d7 3c 8c 31 79 bd
       0.038852956 0.0037241725 0.026298001 -0.060838267
000380 c6 7e 72 3d 5b b8 f8 3b cc 5d f6 bb 4a cd 93 bd
       0.05920293 0.0075903363 -0.0075185057 -0.0721689
000390 40 36 a2 bd 0d e8 ed 3c 38 6a 4b bd f5 da 97 bd
       -0.079205036 0.029041314 -0.049661845 -0.074148096
0003a0 50 20 df 3b 38 95 4e 3c bc 0f e0 bc a0 82 bc 3c
       0.006809272 0.012608819 -0.027351253 0.023011506
0003b0 fb 11 79 3c 1e 4a 52 bc 76 2f b8 3d 0d a3 08 3d
       0.015202041 -0.012835054 0.089934275 0.033358622
0003c0 1f 00 c3 bb 50 63 4b bc 7c 7c 2f 3d e9 dc 28 be
       -0.005950942 -0.012413815 0.042843327 -0.1649052
0003d0 b0 0b c1 bd 09 e9 a2 bc a7 81 db bc 5c 55 2e 3b
       -0.09426057 -0.01988651 -0.026795221 0.002660117
0003e0 01 a5 b2 3d fd b2 36 3c e0 ab a3 bd f6 18 69 bd
       0.08722878 0.011151073 -0.07991767 -0.05690857
0003f0 c3 a1 54 bd aa d1 94 bc ed a1 5b 3d 86 c4 b3 bd
       -0.05191208 -0.018166382 0.05362122 -0.08777718
